GCN-Align/saved_model/fr_model.pt (torch, 4123 bytes, 5 tensors)

gnn_layers.0.weight f4 [1, 100]
000000 e2 92 8c 3f 0f 97 8f 3f be f6 8f 3f d1 07 90 3f
       1.0982325 1.1217974 1.1247175 1.1252385
000010 0e c0 8e 3f c2 78 90 3f 0e ef 8e 3f e3 9f 90 3f
       1.115236 1.1286852 1.1166704 1.1298794
000020 fc c0 8e 3f 0b 00 8f 3f 80 b4 8e 3f e5 17 8f 3f
       1.1152644 1.1171888 1.1148834 1.1179167
000030 92 43 8f 3f 18 4a 90 3f 7c 84 8f 3f 9e 5d 8f 3f
       1.1192496 1.1272612 1.1212306 1.1200445
000040 54 5c 8f 3f eb 81 8e 3f 65 60 8f 3f ad ed 8e 3f
       1.1200051 1.1133398 1.1201292 1.1166283
000050 68 69 8f 3f 2d 35 8f 3f 8c 24 8f 3f 27 ae 8f 3f
       1.1204042 1.1188103 1.1183028 1.1225022
000060 31 1f 90 3f fe 61 8f 3f 32 73 8f 3f 30 e8 8f 3f
       1.1259519 1.120178 1.120703 1.1242733
000070 26 7e 8e 3f 6c 01 8e 3f c0 9d 8f 3f 96 db 8d 3f
       1.1132247 1.1094184 1.1220016 1.1082637
000080 8a 2c 90 3f 05 4e 90 3f f7 d4 8e 3f 84 77 8f 3f
       1.1263592 1.127381 1.1158742 1.1208348
000090 1d 66 8f 3f f9 f7 8f 3f f5 08 8f 3f f5 d6 8e 3f
       1.1203038 1.124755 1.1174608 1.115935
0000a0 b6 80 8f 3f aa 66 8f 3f 19 cc 8f 3f 04 6a 90 3f
       1.1211154 1.1203206 1.1234161 1.1282353
0000b0 66 59 90 3f b4 56 8e 3f f5 8c 8f 3f 0d c7 8e 3f
       1.1277282 1.112021 1.1214892 1.1154495
0000c0 f5 40 8e 3f 3f 27 90 3f fa 64 8f 3f 67 84 8e 3f
       1.1113573 1.1261977 1.1202691 1.1134156
0000d0 18 3f 90 3f db 88 8f 3f d6 99 90 3f ff 14 90 3f
       1.1269255 1.121364 1.1296947 1.1256407
0000e0 11 f9 8f 3f 9b b4 8f 3f 11 2e 90 3f 87 15 8e 3f
       1.1247884 1.1226991 1.1264058 1.110032
0000f0 31 eb 8f 3f 30 15 90 3f b6 ea 8e 3f f3 04 8f 3f
       1.124365 1.1256466 1.1165378 1.1173385
000100 00 28 8e 3f c0 4e 90 3f bb 14 90 3f 07 e7 8f 3f
       1.1105957 1.1274033 1.1256326 1.1242379
000110 9d e8 8e 3f c2 4b 8e 3f d8 64 8e 3f 11 b3 8e 3f
       1.1164738 1.111687 1.1124525 1.1148397
000120 d3 76 90 3f 61 8b 8f 3f 61 fc 8f 3f 65 11 90 3f
       1.1286262 1.121441 1.1248895 1.1255308
000130 31 43 8f 3f 25 c5 8d 3f e0 7c 8f 3f 6c 08 90 3f
       1.119238 1.1075789 1.1209984 1.125257
000140 ec ab 8e 3f 21 90 90 3f fd 4c 8f 3f c7 9a 8f 3f
       1.1146216 1.1293985 1.119537 1.1219109
000150 56 25 8e 3f 59 80 8e 3f c2 be 8e 3f b3 ec 8e 3f
       1.1105144 1.1132919 1.1151965 1.1165985
000160 5e 64 8f 3f 28 89 8f 3f c8 70 90 3f 76 94 8e 3f
       1.1202505 1.1213732 1.1284418 1.1139057
000170 bd 7f 8f 3f 60 93 8e 3f 6b e3 8f 3f 5a 32 8e 3f
       1.1210858 1.1138725 1.1241277 1.1109116
000180 11 91 8f 3f b7 f4 8f 3f bc 8c 8e 3f 18 36 90 3f
       1.1216146 1.1246556 1.1136699 1.1266508

gnn_layers.1.weight f4 [1, 100]
000000 73 95 8c 3f bb 9c 8f 3f e1 fc 8f 3f af 0d 90 3f
       1.0983108 1.1219705 1.1249048 1.1254176
000010 00 c4 8e 3f 79 7d 90 3f 1b f5 8e 3f 3e a5 90 3f
       1.1153564 1.1288291 1.116855 1.1300428
000020 86 c7 8e 3f 0c 05 8f 3f bd b9 8e 3f c7 1d 8f 3f
       1.115464 1.1173415 1.1150433 1.1180962
000030 38 49 8f 3f 6c 4f 90 3f 21 89 8f 3f dd 63 8f 3f
       1.119422 1.1274238 1.1213723 1.1202351
000040 da 61 8f 3f 44 88 8e 3f 75 65 8f 3f a3 f3 8e 3f
       1.1201737 1.1135335 1.1202837 1.1168102
000050 f3 6f 8f 3f d2 3a 8f 3f 77 2a 8f 3f 48 b3 8f 3f
       1.1206039 1.1189826 1.1184834 1.1226587
000060 e9 24 90 3f 6a 68 8f 3f b8 78 8f 3f e1 ec 8f 3f
       1.1261264 1.120374 1.1208715 1.1244165
000070 bf 84 8e 3f 36 07 8e 3f f3 a3 8f 3f c3 e1 8d 3f
       1.1134261 1.1095951 1.1221908 1.1084522
000080 7e 32 90 3f 4a 53 90 3f 6c db 8e 3f 35 7d 8f 3f
       1.1265409 1.1275418 1.1160712 1.1210085
000090 5c 6b 8f 3f c8 fd 8f 3f 3d 0f 8f 3f ee db 8e 3f
       1.1204638 1.1249323 1.1176525 1.1160867
0000a0 5e 85 8f 3f cb 6d 8f 3f d9 d0 8f 3f d8 6f 90 3f
       1.1212575 1.1205381 1.123561 1.1284132
0000b0 25 5f 90 3f 51 5c 8e 3f 07 92 8f 3f 21 cc 8e 3f
       1.1279036 1.1121923 1.1216439 1.1156045
0000c0 98 45 8e 3f bd 2c 90 3f e6 6a 8f 3f 60 8a 8e 3f
       1.1114988 1.1263653 1.1204498 1.1135979
0000d0 a2 44 90 3f e9 8e 8f 3f d8 9f 90 3f bb 1a 90 3f
       1.1270945 1.1215488 1.129878 1.1258157
0000e0 0c ff 8f 3f 23 bb 8f 3f 41 33 90 3f 92 1b 8e 3f
       1.1249709 1.1228985 1.1265641 1.1102164
0000f0 b9 f0 8f 3f 43 1b 90 3f 2c f0 8e 3f ea 0a 8f 3f
       1.1245338 1.125832 1.1167045 1.1175206
000100 8a 2d 8e 3f ed 54 90 3f b6 1a 90 3f 5d eb 8f 3f
       1.1107647 1.1275917 1.1258152 1.1243702
000110 06 ee 8e 3f b8 51 8e 3f bb 68 8e 3f 1f b8 8e 3f
       1.1166389 1.1118689 1.1125711 1.1149939
000120 18 7c 90 3f d2 90 8f 3f cb 01 90 3f 8e 17 90 3f
       1.128787 1.1216071 1.1250547 1.1257188
000130 27 49 8f 3f 2e cc 8d 3f 4b 81 8f 3f cd 0e 90 3f
       1.1194199 1.1077936 1.1211332 1.1254517
000140 e9 b1 8e 3f 84 96 90 3f 2d 52 8f 3f 1e a0 8f 3f
       1.1148044 1.1295934 1.1196953 1.1220739
000150 75 29 8e 3f 9e 85 8e 3f dc c3 8e 3f 5d f1 8e 3f
       1.1106402 1.1134527 1.1153522 1.1167408
000160 c6 68 8f 3f 21 8f 8f 3f ee 75 90 3f 98 9a 8e 3f
       1.1203849 1.1215554 1.1285989 1.1140928
000170 ae 85 8f 3f 72 98 8e 3f 2b e8 8f 3f b1 38 8e 3f
       1.1212671 1.1140273 1.1242727 1.1111051
000180 d5 96 8f 3f 79 fa 8f 3f 17 92 8e 3f 5f 3b 90 3f
       1.1217905 1.1248313 1.1138333 1.1268119

gat.a_i.weight f4 [1, 100]
000000 75 c5 94 3d d3 59 f3 bc 4d 3a cb 3b 2b 0a 9e 3d
       0.072642244 -0.029705917 0.0062020184 0.07716783
000010 53 10 c1 3d ed 7b e5 3c 80 61 3e bd 13 2d 02 bd
       0.09426942 0.028013194 -0.046479702 -0.031781267
000020 50 6d 1e 3d b3 45 7d bd 32 ba c5 3d 4d 55 85 3c
       0.038678467 -0.06183405 0.096546546 0.016276026
000030 c2 ec b1 bd 4d 1a bc bd 8b c2 bb 3d 4d 00 48 3c
       -0.08687736 -0.09184704 0.091679655 0.012207103
000040 cd 5c 2b 3d af 23 88 bd 80 bd cd 3c 48 e7 97 bd
       0.04183655 -0.06647431 0.025114775 -0.0741716
000050 ba c4 94 3c 67 39 a2 3d 80 68 67 3d df 14 c2 bd
       0.018160213 0.07921105 0.056496143 -0.09476637
000060 da 3b aa bc 3a 7d 52 3d 6d ee d8 bc 5d ce 0a bd
       -0.020780493 0.051388957 -0.026480878 -0.03388821
000070 cf 34 be bd bf 95 ca 3d 0b 8d a4 3d d5 5f bd 3d
       -0.09287416 0.09891843 0.08034714 0.09246794
000080 97 67 bf bd 4d 82 8f bc 97 f6 98 bd 37 11 56 bd
       -0.0934593 -0.017518187 -0.07468908 -0.05226251
000090 b7 5a 33 bd 63 61 3a bd cf 49 93 3d 13 a3 b9 3c
       -0.043787684 -0.04550303 0.07191812 0.022660768
0000a0 d0 43 70 3d cd 97 6b bc 37 0a 5d 3d 3a f8 5b 3d
       0.05865842 -0.014379454 0.05396482 0.053703524
0000b0 ed d9 0c bd 80 52 64 bc d3 6a e6 3c da 08 e6 3c
       -0.034387518 -0.013935685 0.02812711 0.028080393
0000c0 43 de 1a bd 20 44 fe 3c 00 70 8e 3a af 12 bd 3d
       -0.03780962 0.031038344 0.0010867119 0.09232079
0000d0 5a 83 1e 3d 4d be 75 bc 12 b0 99 3d cd 5f e6 bc
       0.038699485 -0.0149989845 0.07504286 -0.028121853
0000e0 67 e4 ec 3a 7d a7 cc bd 47 3c 81 3c a7 d7 8a bd
       0.001807344 -0.09992883 0.015775813 -0.06779414
0000f0 5a a6 cf bc 8d e3 58 3d 83 94 bc 3d c7 bb 4c 3d
       -0.025347877 0.052951384 0.09208014 0.049983766
000100 60 34 cb bc c7 47 cc 3d 7a 11 a0 3d 1b f5 aa bd
       -0.024805248 0.09974628 0.078158334 -0.083475314
000110 10 b0 0e 3d a0 f1 8f 3c 57 13 70 3d f3 cb 9e bc
       0.034835875 0.01757127 0.058612194 -0.01938436
000120 ca e4 b0 3d a0 28 f5 3c 3a cf 70 bd 3a a5 40 3d
       0.08637388 0.029926598 -0.058791377 0.047032572
000130 97 58 c2 bd 0b e4 88 3d 88 c1 c1 3d 30 bc 4b bd
       -0.094895534 0.06684121 0.09460741 -0.049740016
000140 9d c8 98 3d 6a 1c c1 3d a0 94 9b bd d3 1f 30 3d
       0.07460139 0.09429248 -0.07596707 0.0429991
000150 07 14 31 bd 80 49 cb 3b 7a 5c 90 bd 42 64 95 bd
       -0.04323199 0.0062038302 -0.070488885 -0.07294513
000160 cd 80 62 ba 2b fe a7 bd 27 f1 86 bd c0 43 45 bc
       -0.00086404086 -0.082027756 -0.06588965 -0.012040079
000170 e7 9c 5f bd 8d a7 2c 3d 60 c9 c3 bd a3 60 ae bd
       -0.054592993 0.042151976 -0.095598936 -0.08514526
000180 cb 5b c0 3d cd 2b 49 3c 1d 20 91 3d cd 05 49 bb
       0.09392508 0.012278509 0.07086203 -0.0030673624

gat.a_j.weight f4 [1, 100]
000000 98 0d 91 bd 40 89 1e bd 1a 90 c1 bb 45 70 97 3d
       -0.07082671 -0.03870511 -0.005907071 0.073944606
000010 33 31 f0 3b 02 f9 c2 bd ed a4 8c bd da 09 e3 bc
       0.0073300838 -0.09520151 -0.068673946 -0.027714659
000020 0d 27 5e bc 23 02 82 bd 57 95 54 3d 6a e6 72 bd
       -0.013559115 -0.06348064 0.051900234 -0.05930177
000030 08 ff c9 3d 33 7b 91 b9 ba 66 e4 bc 30 9e 2f 3d
       0.098630965 -0.00027748346 -0.027881015 0.04287547
000040 7d 84 06 3d 33 a0 21 3b 1d d8 62 bd b7 e3 12 bd
       0.032841194 0.0024662137 -0.055381883 -0.035861697
000050 9a e1 5a 3c 9a ab 72 3b a7 89 a2 bd 5a 52 cf 3c
       0.013359452 0.0037028552 -0.07936411 0.025307823
000060 00 23 e2 bb ca f7 03 3d f3 95 96 bc ff 1f af bd
       -0.006901145 0.032218732 -0.018382048 -0.08551025
000070 1a b7 50 3d 73 6e cf bc cd d6 6a 3c 9a 74 de bb
       0.05095587 -0.025321221 0.014333439 -0.0067888023
000080 1d 44 b6 bd ed fc 8d 3c 67 bd b5 3c da ab fb bc
       -0.0889971 0.017332518 0.02218504 -0.030721594
000090 cb 24 89 3d ad 12 5b 3d 13 3e a8 bd 67 a9 e8 bb
       0.06696471 0.053484607 -0.08214965 -0.0071002725
0000a0 ed c9 fb bc 33 41 b8 3a fd 56 39 3d 4d ee 55 3d
       -0.030735934 0.0014057517 0.045248974 0.052229214
0000b0 87 3a 76 3d a3 62 21 3d b7 4a 09 bd 6d 15 ef 3c
       0.06011441 0.039400708 -0.03351852 0.029185021
0000c0 82 86 94 bd 9a 96 1a bb d8 88 b8 bd c3 76 3a 3d
       -0.07252218 -0.00235883 -0.09010476 0.045523416
0000d0 23 3e 42 3d 22 c8 c0 3d c0 2a 78 3d 58 af 94 bd
       0.04742254 0.09413172 0.060587645 -0.07260007
0000e0 77 ce 73 bd 97 05 22 3d 67 06 17 bc 2d 93 cc bd
       -0.059523072 0.039556112 -0.009217835 -0.09989009
0000f0 8d 6d 48 3d 30 b4 02 bd da b1 fb bc 50 13 52 3d
       0.0489326 -0.03191012 -0.030724455 0.05128795
000100 da 82 3d 3d 23 6a 4e bd a5 eb 81 3d 80 f6 a0 3d
       0.046267368 -0.05039419 0.06343774 0.07859516
000110 80 42 ae bd e3 01 1c 3d 00 b6 d5 3a cd 04 4a 3a
       -0.085087776 0.038087737 0.001630485 0.0007706404
000120 08 ef 80 3d 00 98 9c b9 02 f8 8f bd 3d 8b ca 3d
       0.062955916 -0.00029867887 -0.070297256 0.09889839
000130 27 8a 63 3d cd cb 17 3d 98 86 90 bd 17 5a 4a bd
       0.055551674 0.037059594 -0.07056922 -0.049402323
000140 5a b1 83 3c af e1 b8 bd 90 30 a6 3d 0d c7 1d 3d
       0.016075779 -0.09027421 0.08114731 0.038519908
000150 e7 34 4f 3c 33 d7 1e bb e0 2b b2 bd 77 9b 86 3d
       0.01264689 -0.0024237155 -0.08699775 0.06572621
000160 da 56 88 3c 23 93 23 bd e7 e2 b1 3d 4d a8 09 bc
       0.016642977 -0.039935242 0.08685856 -0.008401942
000170 53 a4 7d bd 8d f0 40 3c f3 0e 9f 3c 73 db 63 bd
       -0.06192429 0.011776102 0.019416308 -0.055629205
000180 e3 a3 b5 bd 7a 2e 8d 3c d0 d9 39 3d 27 07 f4 3c
       -0.088691495 0.017234076 0.045373738 0.029788567

gat.a_r.weight f4 [1, 100]
000000 33 0c 38 3d 4a 71 3f bd 4d 09 6c 3d a7 9e 48 3d
       0.04493351 -0.0467389 0.057626057 0.048979428
000010 43 fe 41 3d 7d 10 62 bd cd a9 9b 3d f0 4a a1 bd
       0.047361623 -0.055191506 0.07600746 -0.07875621
000020 20 b3 b3 bc 35 cd 8f 3d 92 0b 94 3d d7 21 c6 3d
       -0.021936 0.07021562 0.07228769 0.09674423
000030 fd 66 7d 3d 40 8f ae bd 60 49 d4 3c 2d 08 c1 3c
       0.061865795 -0.085234165 0.025913894 0.023563469
000040 bb 71 82 3d 00 80 13 39 67 a4 d0 3a e7 93 24 bc
       0.063693486 0.00014066696 0.0015918136 -0.010045028
000050 7a 75 8e 3c 6a 26 cb 3d 67 3e de bb 4d 93 6d bd
       0.017390002 0.09919436 -0.0067823413 -0.058001805
000060 40 14 f6 3c 3a fd 8a 3d 2d fe ae bc aa c7 38 3d
       0.030038953 0.067865804 -0.021361435 0.04511229
000070 97 8e b8 3d bd fb 7d 3d fd 8c 35 3d a5 0f bc 3d
       0.09011572 0.062007654 0.04432391 0.091826715
000080 8d 6b 06 3d b3 6c 0a 3d 8d 6b e6 bc 4f a8 9a 3d
       0.032817412 0.03379507 -0.028127456 0.075516336
000090 40 7b 93 3d b3 f9 6a 3c 8b 72 a9 3d 3a 79 e9 3c
       0.072012424 0.0143417595 0.082738005 0.028500188
0000a0 52 81 90 3d 65 e0 ac 3d 40 8d 88 3c f5 a4 8a 3d
       0.07055916 0.08441237 0.016668916 0.06769744
0000b0 77 0d 45 3d 3a 6b a2 bd 2a 05 8e bd 97 32 5c 3d
       0.048108544 -0.07930608 -0.06934579 0.053759184
0000c0 c0 95 08 bd 30 f6 40 3d 9a 6b 89 bd cd d5 0b 3b
       -0.033345938 0.047109783 -0.067099765 0.0021337152
0000d0 37 12 0d bd a3 69 1d bd fb a4 b9 3d 9f 93 80 bd
       -0.0344412 -0.03843082 0.09064671 -0.062781565
0000e0 90 d8 78 bd 87 f1 21 bd 4d cb 01 bc a8 a1 ba bd
       -0.060753405 -0.03953698 -0.007922006 -0.09112865
0000f0 fa df 90 bc a3 ca a7 3d 13 7b 52 bd 5f 7a 95 3d
       -0.017684925 0.08192947 -0.051386904 0.07298731
000100 5b e7 a2 3d d0 cd 57 3d 67 4a a0 3d ed 40 17 bd
       0.07954284 0.052686512 0.07826691 -0.036927152
000110 ed b6 f4 bc 4b ba 99 bd fd dc a0 bd 83 34 92 3d
       -0.029872382 -0.07506236 -0.0785465 0.07138922
000120 67 69 b2 3c 65 bb c3 bd 7d c2 6f bd 50 f5 97 3d
       0.021778775 -0.09557227 -0.058535088 0.074198365
000130 00 90 83 bb 05 64 b6 3d 33 dd 5f 3d df f5 9d bd
       -0.004014969 0.08905796 0.05465431 -0.07712912
000140 ba 96 83 bd 00 a0 c1 bd 6b 41 8b 3d ed 34 23 bd
       -0.06425233 -0.09454346 0.06799587 -0.039845396
000150 2d c5 b6 bc 67 36 53 bd 88 99 c6 3d d8 55 ae bd
       -0.022310818 -0.051565554 0.096972525 -0.08512467
000160 cd 29 cf 3b 82 03 9b 3d 27 52 e8 3c b0 11 25 bd
       0.0063221217 0.075690284 0.028359486 -0.04030007
000170 cf 81 bf bd a2 9c 92 bd 07 43 b8 3d cd 0d 9e bd
       -0.09350931 -0.071587816 0.089971595 -0.07717476
000180 ba 31 a9 3d 40 4b e2 bc 77 06 b9 3d e7 7f ca bb
       0.08261438 -0.027623773 0.09034436 -0.006179798
