GCN-Align/saved_model/ja_model.pt (torch, 4123 bytes, 5 tensors)

gnn_layers.0.weight f4 [1, 100]
0	0x3f8cd1cb	1.1001524
1	0x3f8da461	1.106579
2	0x3f8d203e	1.1025465
3	0x3f8eb1cf	1.1148013
4	0x3f8e43f3	1.1114486
5	0x3f8e5e1a	1.1122468
6	0x3f8e7f4c	1.1132598
7	0x3f8ce2d8	1.1006727
8	0x3f8e84ed	1.1134316
9	0x3f8ea247	1.1143273
10	0x3f8dfb98	1.1092405
11	0x3f8d6161	1.1045343
12	0x3f8d68b1	1.1047574
13	0x3f8e54b2	1.1119597
14	0x3f8e85e6	1.1134613
15	0x3f8d7f37	1.1054448
16	0x3f8ebb93	1.1150993
17	0x3f8df28b	1.1089643
18	0x3f8ec03c	1.1152415
19	0x3f8dc10b	1.1074537
20	0x3f8eb2ad	1.1148278
21	0x3f8e67ef	1.1125468
22	0x3f8daa75	1.1067644
23	0x3f8e60a1	1.1123239
24	0x3f8d5b62	1.1043513
25	0x3f8e74c9	1.112939
26	0x3f8dd9c9	1.1082088
27	0x3f8ebd06	1.1151435
28	0x3f8da46d	1.1065804
29	0x3f8e8668	1.1134768
30	0x3f8d43a1	1.1036264
31	0x3f8ce4eb	1.100736
32	0x3f8d2a8e	1.1028612
33	0x3f8e9c7b	1.1141504
34	0x3f8ea800	1.114502
35	0x3f8e0b5d	1.1097218
36	0x3f8e6d20	1.1127052
37	0x3f8ec4c1	1.1153795
38	0x3f8e2f9d	1.110828
39	0x3f8ed77f	1.1159514
40	0x3f8d5e10	1.1044331
41	0x3f8ee774	1.1164384
42	0x3f8ed468	1.1158571
43	0x3f8e8db7	1.1136998
44	0x3f8e4b86	1.1116798
45	0x3f8e4dbd	1.1117474
46	0x3f8d73ed	1.1051003
47	0x3f8e7475	1.112929
48	0x3f8ec973	1.1155227
49	0x3f8d0d60	1.1019707
50	0x3f8ea262	1.1143305
51	0x3f8d6a01	1.1047975
52	0x3f8cd7f3	1.1003402
53	0x3f8e7b1a	1.1131318
54	0x3f8e7b5c	1.1131396
55	0x3f8e7413	1.1129173
56	0x3f8e67eb	1.1125463
57	0x3f8e3286	1.1109169
58	0x3f8eb8b5	1.1150118
59	0x3f8e53f0	1.1119366
60	0x3f8e4746	1.1115501
61	0x3f8eaa45	1.1145712
62	0x3f8ebfea	1.1152318
63	0x3f8e079e	1.1096075
64	0x3f8d9b54	1.1063027
65	0x3f8e9846	1.114022
66	0x3f8ce5a2	1.1007578
67	0x3f8d9d64	1.1063657
68	0x3f8e8040	1.1132889
69	0x3f8d371e	1.1032445
70	0x3f8e740a	1.1129162
71	0x3f8e5da4	1.1122327
72	0x3f8da5f3	1.1066269
73	0x3f8d6685	1.1046911
74	0x3f8d5790	1.1042347
75	0x3f8e5031	1.1118222
76	0x3f8e9445	1.1138998
77	0x3f8e45f3	1.1115097
78	0x3f8d770b	1.1051954
79	0x3f8ea49b	1.1143984
80	0x3f8ccaed	1.0999428
81	0x3f8cf7d0	1.1013126
82	0x3f8d4b20	1.1038551
83	0x3f8dc66a	1.1076176
84	0x3f8d12b9	1.1021339
85	0x3f8e8b9b	1.1136354
86	0x3f8e70ce	1.1128175
87	0x3f8ed7b4	1.1159577
88	0x3f8d8e2e	1.1059015
89	0x3f8e89da	1.1135819
90	0x3f8ed1f4	1.1157823
91	0x3f8d27e8	1.1027803
92	0x3f8d1dc5	1.102471
93	0x3f8ec973	1.1155227
94	0x3f8da3cc	1.1065612
95	0x3f8dfb6c	1.1092353
96	0x3f8d2e5f	1.1029776
97	0x3f8ebc6d	1.1151253
98	0x3f8e1f47	1.1103295
99	0x3f8d7049	1.1049892

gnn_layers.1.weight f4 [1, 100]
0	0x3f8cd67f	1.1002959
1	0x3f8da983	1.1067356
2	0x3f8d2577	1.1027058
3	0x3f8eb663	1.114941
4	0x3f8e48d8	1.111598
5	0x3f8e6297	1.1123837
6	0x3f8e8436	1.1134098
7	0x3f8ce854	1.1008401
8	0x3f8e8989	1.1135722
9	0x3f8ea75e	1.1144826
10	0x3f8e006d	1.109388
11	0x3f8d666b	1.104688
12	0x3f8d6bc8	1.1048517
13	0x3f8e59d2	1.1121161
14	0x3f8e8b5f	1.1136283
15	0x3f8d8438	1.1055975
16	0x3f8ec093	1.1152519
17	0x3f8df75c	1.1091113
18	0x3f8ec5f5	1.1154162
19	0x3f8dc5a4	1.107594
20	0x3f8eb755	1.1149698
21	0x3f8e6cd1	1.1126958
22	0x3f8dae6b	1.1068853
23	0x3f8e65bd	1.1124798
24	0x3f8d602b	1.1044973
25	0x3f8e79ef	1.1130961
26	0x3f8ddf2d	1.1083733
27	0x3f8ec1ab	1.1152853
28	0x3f8da994	1.1067376
29	0x3f8e8b1e	1.1136205
30	0x3f8d481b	1.103763
31	0x3f8ce92e	1.1008661
32	0x3f8d2f71	1.1030103
33	0x3f8ea1fc	1.1143184
34	0x3f8ead0f	1.1146563
35	0x3f8e1145	1.109902
36	0x3f8e71b4	1.112845
37	0x3f8ec9c1	1.115532
38	0x3f8e34bf	1.1109847
39	0x3f8edc6e	1.116102
40	0x3f8d6260	1.1045647
41	0x3f8eec23	1.1165813
42	0x3f8eda1e	1.1160314
43	0x3f8e92bf	1.1138533
44	0x3f8e5138	1.1118536
45	0x3f8e5375	1.1119219
46	0x3f8d78c3	1.1052479
47	0x3f8e7988	1.1130838
48	0x3f8ecead	1.1156822
49	0x3f8d12cd	1.1021363
50	0x3f8ea76a	1.1144841
51	0x3f8d6ee5	1.1049467
52	0x3f8cdcd9	1.1004897
53	0x3f8e8047	1.1132897
54	0x3f8e80ca	1.1133053
55	0x3f8e7968	1.11308
56	0x3f8e6d5d	1.1127125
57	0x3f8e37ae	1.1110742
58	0x3f8ebd96	1.1151607
59	0x3f8e5913	1.1120933
60	0x3f8e4c65	1.1117064
61	0x3f8eaf71	1.114729
62	0x3f8ec504	1.1153874
63	0x3f8e0d68	1.1097841
64	0x3f8d9fe3	1.1064419
65	0x3f8e9d06	1.114167
66	0x3f8cea59	1.1009017
67	0x3f8da1e5	1.1065031
68	0x3f8e8548	1.1134424
69	0x3f8d3bee	1.1033914
70	0x3f8e7830	1.1130428
71	0x3f8e631e	1.1123998
72	0x3f8daa12	1.1067526
73	0x3f8d6bae	1.1048486
74	0x3f8d5c39	1.1043769
75	0x3f8e549a	1.1119568
76	0x3f8e9977	1.1140584
77	0x3f8e4af9	1.111663
78	0x3f8d7bd5	1.1053416
79	0x3f8ea9cb	1.1145567
80	0x3f8ccfc3	1.1000904
81	0x3f8cfc88	1.1014566
82	0x3f8d501c	1.1040072
83	0x3f8dca63	1.1077389
84	0x3f8d1681	1.1022493
85	0x3f8e9071	1.113783
86	0x3f8e7642	1.112984
87	0x3f8edc3e	1.1160963
88	0x3f8d930d	1.1060501
89	0x3f8e8eb7	1.1137303
90	0x3f8ed68d	1.1159226
91	0x3f8d2cda	1.1029313
92	0x3f8d22ff	1.1026305
93	0x3f8ecf20	1.115696
94	0x3f8da8a4	1.106709
95	0x3f8e00d0	1.1093998
96	0x3f8d3394	1.1031365
97	0x3f8ec0f9	1.115264
98	0x3f8e2452	1.1104834
99	0x3f8d7572	1.1051466

gat.a_i.weight f4 [1, 100]
0	0xbd761cad	-0.06008594
1	0xbdc17020	-0.09445214
2	0xbd8920d5	-0.06695715
3	0xbc9abf87	-0.018890155
4	0x3c55c5f3	0.013047683
5	0xbc3d598d	-0.011556995
6	0x3d444c43	0.04792429
7	0x3d938b70	0.0720433
8	0x3bcddb1a	0.0062822225
9	0xbd871ffa	-0.06597896
10	0x3d643267	0.05571213
11	0x3d3f2273	0.046663713
12	0x3dcc2c0b	0.09969338
13	0xbd838958	-0.064226806
14	0x3d9dc895	0.077042736
15	0xbdb898a8	-0.09013492
16	0xbcbbd053	-0.022926485
17	0xbd4e8d77	-0.05042788
18	0xbd51e317	-0.05124196
19	0xbdaf323d	-0.08554504
20	0x3d8cb255	0.06869952
21	0xbd95b3c0	-0.07309675
22	0x3bde7ee7	0.0067900303
23	0xbd7c6cfa	-0.061627366
24	0x3bdbd600	0.0067088604
25	0x392f5ccd	0.00016723872
26	0xbce13b53	-0.027494108
27	0x3da288a7	0.079362206
28	0xbd7f8e73	-0.06239171
29	0x3daa667b	0.08320328
30	0x3db8213f	0.08990716
31	0x3ceed08d	0.02915218
32	0x3daa3fb7	0.08312934
33	0x3d384557	0.044988003
34	0xb8e82ccd	-0.00011070967
35	0x3cf88f8d	0.030341888
36	0xbdc0f0e8	-0.09420949
37	0x3cc3222d	0.023820007
38	0xbd0611a7	-0.03273168
39	0x3dc1e37a	0.09467216
40	0x3db2e232	0.087345496
41	0x3c7821da	0.01514479
42	0x3d998610	0.074962735
43	0xbd4afeea	-0.04955951
44	0x3d1add47	0.037808683
45	0xbd67e7ea	-0.056617655
46	0x3c02a1f3	0.007973182
47	0x3d0e5ada	0.03475461
48	0x3c09d680	0.008412957
49	0x3bc4e01a	0.0060081603
50	0x3d2c4dc3	0.042066347
51	0xbcc87cc0	-0.024473548
52	0x3dc2fc4b	0.09520777
53	0xbd0213c3	-0.031757127
54	0x3d927a53	0.07152238
55	0x3bfe891a	0.0077678086
56	0xbb980e80	-0.0046404004
57	0xbd23707a	-0.039902188
58	0xbbd7ef9a	-0.006589842
59	0x3dc23b12	0.09483923
60	0xbdab0b2d	-0.08351741
61	0xbdb7334d	-0.08945332
62	0xbd9aabd5	-0.075523056
63	0xbd6d45ed	-0.057928015
64	0xbd2262f3	-0.039645147
65	0xbdad927d	-0.08475206
66	0xbdc25fdf	-0.09490942
67	0xbd7923ad	-0.06082504
68	0xbc3e6f00	-0.011623144
69	0x3cb4777a	0.022029627
70	0xbd77c757	-0.06049284
71	0x3da5b2d2	0.08090748
72	0x3b487f67	0.0030593516
73	0x3d2e3b0d	0.042536784
74	0xbd59e9c3	-0.05320145
75	0xbce35c7a	-0.027754057
76	0xbd971e6a	-0.07378848
77	0x3dae3515	0.08506218
78	0xbbc266cd	-0.005932665
79	0x3d80ce78	0.06289381
80	0x3dcbe36f	0.09955489
81	0x3d8c2590	0.06843102
82	0x3d864ca0	0.06557584
83	0x3cb6ad3a	0.022299398
84	0xbc2ab1da	-0.01041838
85	0x3dbca333	0.09210815
86	0xbc617427	-0.013760603
87	0xbd9fd53f	-0.07804345
88	0xbb6911cd	-0.0035563589
89	0x3dc68dba	0.09695001
90	0xbbd8a880	-0.0066118836
91	0xbd37ea1a	-0.04490099
92	0x3cf385e7	0.029726936
93	0xbd178ab0	-0.036997497
94	0xbc5f2433	-0.01361947
95	0xbdc5baca	-0.09654768
96	0xbd06995d	-0.032861102
97	0x3cf32793	0.029681956
98	0xbd000bad	-0.031261135
99	0xbdb91e8a	-0.09039028

gat.a_j.weight f4 [1, 100]
0	0x3bde2f00	0.006780505
1	0x3d7b3c8d	0.061337043
2	0x3d1dae50	0.038496315
3	0xbc812560	-0.015764892
4	0x3d16a3c7	0.036777284
5	0x3d76cacd	0.060252
6	0x3c5129da	0.012766326
7	0x3cba381a	0.02273183
8	0x3d339ec0	0.043852568
9	0x3d81aa70	0.063313365
10	0xbdafff93	-0.08593669
11	0xbdac22c8	-0.084050715
12	0x3d2f21ba	0.042756774
13	0xbd67268a	-0.056433238
14	0x3d8dcc82	0.069237724
15	0xbd51cf53	-0.05122311
16	0xbd8787c8	-0.06617695
17	0xbdb3ac90	-0.08773148
18	0xbdb8c8c3	-0.09022667
19	0x3d5ef37d	0.054431427
20	0xbd13d000	-0.036087036
21	0xbd42f4e7	-0.04759684
22	0x3bc5da67	0.0060379985
23	0x3d8abc87	0.0677424
24	0xbce5062d	-0.027957046
25	0xbd39053a	-0.045171
26	0x3dbb9cc0	0.09160757
27	0xbd356a23	-0.044290673
28	0xbd857a1b	-0.065174304
29	0x3ceb7ef3	0.028747058
30	0xbdc9841b	-0.0983965
31	0xbd845b4f	-0.06462728
32	0x3d426c1a	0.047466375
33	0x3cbe9fb3	0.02326951
34	0xbd12e9fa	-0.03586767
35	0x3c6402a7	0.013916648
36	0x3d7180c3	0.058960687
37	0x3d436650	0.047704995
38	0x3d28d25d	0.041216243
39	0xbdbd4613	-0.09241881
40	0x3c2bf3f3	0.010495174
41	0x3c834b93	0.016027248
42	0x3d80fe37	0.06298488
43	0xbcd45427	-0.025919033
44	0x3d479473	0.048725557
45	0xbcc9e300	-0.024644375
46	0x3d98430a	0.07434662
47	0xbd892697	-0.066968136
48	0x3d6d69b3	0.05796213
49	0x3cd8ee87	0.026480926
50	0x3cfc739a	0.030816842
51	0xbc03cf33	-0.008045006
52	0xbdc1d2b8	-0.094640195
53	0x3dbb391f	0.09141754
54	0xbcdb2947	-0.026753081
55	0xba55ac00	-0.0008150935
56	0xbd471c97	-0.04861125
57	0x3b26569a	0.0025381208
58	0x3ca18820	0.01971823
59	0xbdac63a5	-0.08417443
60	0xbd167c3a	-0.036739565
61	0xbd210b9a	-0.039317705
62	0x3d847227	0.06467085
63	0xbdb533b2	-0.08847751
64	0xbba91880	-0.0051603913
65	0x3d112207	0.03543284
66	0x3c735aa7	0.014853156
67	0xbdc1bd72	-0.09459962
68	0x3ca621a0	0.020279706
69	0xbd6ef790	-0.058341563
70	0x3cf6c0ba	0.030121196
71	0x3b91bee7	0.004447806
72	0x3d41c790	0.04730946
73	0x3d3f5c6a	0.046718992
74	0x3d9539e8	0.07286435
75	0xbcc5aa53	-0.024129068
76	0x3d017860	0.03160894
77	0xbca3b4ed	-0.019983733
78	0x3db44432	0.0880207
79	0x3d04161a	0.03224764
80	0xbdb917bd	-0.09037731
81	0x3dc341f3	0.09534063
82	0x3d1066c7	0.035254266
83	0x3d9e876a	0.07740672
84	0x3c10a24d	0.008827758
85	0xbc848cba	-0.016180385
86	0xbc796540	-0.015221894
87	0xbcf2a967	-0.029621793
88	0xbca5bf33	-0.020232772
89	0xbd2f2727	-0.042761948
90	0xbd1c4f0a	-0.038161315
91	0xbd124a10	-0.035715163
92	0x3cf91260	0.03040427
93	0xbd381e93	-0.044951033
94	0x3d843e58	0.064572036
95	0xbd803380	-0.06259823
96	0x3d8a4b98	0.067526996
97	0x3da458da	0.080247596
98	0x3d134870	0.035957754
99	0x3d32d40a	0.043659247

gat.a_r.weight f4 [1, 100]
0	0xbce7d500	-0.028299809
1	0xbc28f600	-0.010312557
2	0x3d50ff13	0.051024508
3	0x3d0b97ad	0.034080196
4	0x3c77cb27	0.015124119
5	0x3d553ce7	0.052060034
6	0x3aa1fb9a	0.0012358308
7	0xbd3d54da	-0.0462235
8	0x3d687e6a	0.056761183
9	0xbd9321d2	-0.07184185
10	0xbd078cf7	-0.03309342
11	0xbd83e337	-0.06439822
12	0x3c75e280	0.015007615
13	0xbbb33f67	-0.0054702046
14	0xbc87dc80	-0.016584635
15	0xbcffd8c0	-0.031231284
16	0x3d36dfd7	0.044647064
17	0x3d46246d	0.048374582
18	0x3d4b2b40	0.049601793
19	0x3dba652f	0.091013305
20	0xbd1c978a	-0.038230456
21	0x3da3c6f5	0.079969324
22	0xbd8d46b5	-0.06898252
23	0xbdaffca0	-0.08593106
24	0x3da16e50	0.078823686
25	0xbd5e339d	-0.05424844
26	0xbcf5a080	-0.029983759
27	0xbd3ffccd	-0.04687195
28	0xbdc8942b	-0.09793886
29	0xbceba000	-0.028762817
30	0xbd682ad0	-0.056681454
31	0x3d53276a	0.05155126
32	0xbbd6fcb3	-0.006560886
33	0x3d685043	0.05671717
34	0x3c53e31a	0.012932563
35	0x3cb6509a	0.02225523
36	0xbd3dab77	-0.0463061
37	0x3d1d1210	0.038347304
38	0x3dc2ef7f	0.095183365
39	0xbdc66a5b	-0.096882544
40	0xbd507987	-0.050897148
41	0xbcd249e7	-0.025670005
42	0xbcb9e18d	-0.022690559
43	0xbbf8b6b3	-0.007590139
44	0x3dbbcc0f	0.091697805
45	0x3d0f0fe0	0.03492725
46	0x3d56a05d	0.052399028
47	0x3d6fce30	0.058546245
48	0x3db5e0c2	0.0888076
49	0x3d84bf37	0.06481784
50	0xbcf91840	-0.030407071
51	0x3d93a757	0.07209652
52	0x3da17de8	0.07885343
53	0xbc83bee7	-0.01608224
54	0xbda81f6d	-0.08209119
55	0x3d9220c3	0.07135155
56	0xbd56105a	-0.052261688
57	0x3da5411f	0.080690615
58	0xbd9e5f25	-0.07732991
59	0xbdae7105	-0.085176505
60	0xbd899be2	-0.067191854
61	0xbc622980	-0.01380384
62	0xbd276e4a	-0.040876664
63	0xbdc88432	-0.09790839
64	0x3da8becb	0.08239516
65	0xbd87d865	-0.06633071
66	0xbd86d463	-0.06583478
67	0xbdca18cf	-0.09868013
68	0x3c0ab38d	0.00846566
69	0xbb19a167	-0.002344215
70	0xbca82ac0	-0.020528197
71	0x397ccccd	0.00024108887
72	0xbc0b1027	-0.008487738
73	0x3dba5e25	0.09099988
74	0xbc2f211a	-0.010689044
75	0x3d479410	0.048725188
76	0xbc2f860d	-0.010713113
77	0x3d9144eb	0.07093223
78	0xbd8e21bf	-0.0694003
79	0xbd4d450a	-0.05011467
80	0x3d924c62	0.07143475
81	0xbcf3a4da	-0.029741693
82	0xbdbf0e9f	-0.093289606
83	0xbd5cdc93	-0.053921293
84	0x3d9328bf	0.07185506
85	0xbb9f6833	-0.0048647164
86	0x3d823625	0.063579835
87	0xbd69786a	-0.0569996
88	0x3d9789e3	0.07399347
89	0xbd92065a	-0.07130118
90	0x3d1f42a3	0.03888191
91	0x3d5b385a	0.053520538
92	0x3d4e8940	0.05042386
93	0x3d777023	0.060409676
94	0x3d895780	0.067061424
95	0x3d58068d	0.052740622
96	0xbcaa56ed	-0.020793403
97	0x3d8642a0	0.065556765
98	0x3dbe1a7f	0.092823975
99	0xbcc7ba5a	-0.024380852
