GCN-Align/saved_model/w_model.pt (torch, 4123 bytes, 5 tensors)

gnn_layers.0.weight f4 [1, 100]
0	0x3f8818ab	1.0632528
1	0x3f87eb2a	1.0618641
2	0x3f894f72	1.072737
3	0x3f89573b	1.0729746
4	0x3f8924dd	1.0714375
5	0x3f8931e4	1.071835
6	0x3f87f8f5	1.0622851
7	0x3f8927d8	1.0715284
8	0x3f892a6a	1.0716069
9	0x3f895bd2	1.0731146
10	0x3f89548b	1.0728925
11	0x3f88140d	1.0631119
12	0x3f894058	1.0722761
13	0x3f894c5b	1.0726427
14	0x3f8802d6	1.0625865
15	0x3f8934e2	1.0719264
16	0x3f87f5ab	1.0621847
17	0x3f8815f8	1.0631704
18	0x3f891a55	1.0711161
19	0x3f8937ab	1.0720114
20	0x3f8934e9	1.0719272
21	0x3f892f0d	1.0717484
22	0x3f87feba	1.0624611
23	0x3f89417c	1.0723109
24	0x3f894ad1	1.0725957
25	0x3f8931ae	1.0718286
26	0x3f893aff	1.0721129
27	0x3f894f9c	1.072742
28	0x3f893580	1.0719452
29	0x3f87d8f7	1.0613087
30	0x3f893bda	1.072139
31	0x3f87f87e	1.0622709
32	0x3f87e741	1.0617448
33	0x3f88130d	1.0630814
34	0x3f8950d7	1.0727795
35	0x3f894fa9	1.0727435
36	0x3f893a88	1.0720987
37	0x3f881a35	1.0632998
38	0x3f894089	1.072282
39	0x3f89562d	1.0729424
40	0x3f8807ca	1.0627377
41	0x3f87fe79	1.0624534
42	0x3f8816fb	1.0632013
43	0x3f893be2	1.07214
44	0x3f882393	1.0635856
45	0x3f8934e4	1.0719266
46	0x3f8925e4	1.0714688
47	0x3f895169	1.072797
48	0x3f880be3	1.0628628
49	0x3f894562	1.0724299
50	0x3f8830dd	1.0639912
51	0x3f882835	1.063727
52	0x3f893c44	1.0721517
53	0x3f893851	1.0720311
54	0x3f8934fb	1.0719293
55	0x3f8947cb	1.0725034
56	0x3f880835	1.0627505
57	0x3f894f3f	1.0727309
58	0x3f8929e3	1.0715908
59	0x3f895281	1.0728303
60	0x3f880b5a	1.0628464
61	0x3f87d734	1.061255
62	0x3f8955a3	1.0729259
63	0x3f88097f	1.0627898
64	0x3f890baf	1.070669
65	0x3f8965b1	1.0734159
66	0x3f880657	1.0626935
67	0x3f87f45e	1.062145
68	0x3f893905	1.0720526
69	0x3f881adb	1.0633196
70	0x3f89232a	1.0713856
71	0x3f89460f	1.0724505
72	0x3f8962e7	1.0733308
73	0x3f87eefc	1.0619807
74	0x3f87f0fc	1.0620418
75	0x3f8915c2	1.0709765
76	0x3f893c5b	1.0721544
77	0x3f8927c3	1.0715259
78	0x3f893e7f	1.0722197
79	0x3f894855	1.0725199
80	0x3f87f3e9	1.062131
81	0x3f87f73b	1.0622324
82	0x3f895621	1.072941
83	0x3f881685	1.0631872
84	0x3f87ecf4	1.0619187
85	0x3f893c76	1.0721576
86	0x3f894a62	1.0725825
87	0x3f893ab4	1.072104
88	0x3f8952e0	1.0728416
89	0x3f880dc7	1.0629205
90	0x3f894787	1.0724953
91	0x3f895011	1.0727559
92	0x3f891d47	1.071206
93	0x3f880282	1.0625765
94	0x3f894e05	1.0726935
95	0x3f895267	1.0728272
96	0x3f880544	1.0626607
97	0x3f892977	1.0715779
98	0x3f893395	1.0718867
99	0x3f88215f	1.0635184

gnn_layers.1.weight f4 [1, 100]
0	0x3f881b10	1.0633259
1	0x3f87ed42	1.061928
2	0x3f8951aa	1.0728047
3	0x3f895977	1.0730428
4	0x3f8926f4	1.0715013
5	0x3f89341b	1.0719026
6	0x3f87fb64	1.0623593
7	0x3f892a27	1.0715989
8	0x3f892c73	1.071669
9	0x3f895da1	1.0731698
10	0x3f89566e	1.0729501
11	0x3f881636	1.0631778
12	0x3f89428a	1.0723431
13	0x3f894e26	1.0726974
14	0x3f880501	1.0626527
15	0x3f89370a	1.0719922
16	0x3f87f7cf	1.06225
17	0x3f881833	1.0632385
18	0x3f891c91	1.0711843
19	0x3f893a1b	1.0720857
20	0x3f893769	1.0720035
21	0x3f8930df	1.0718039
22	0x3f8800c7	1.0625237
23	0x3f89436f	1.0723704
24	0x3f894cb5	1.0726534
25	0x3f8933bc	1.0718913
26	0x3f893ce3	1.0721706
27	0x3f8952f8	1.0728445
28	0x3f8937e3	1.072018
29	0x3f87db7d	1.0613858
30	0x3f893e1a	1.0722077
31	0x3f87fa4d	1.0623261
32	0x3f87e94e	1.0618074
33	0x3f88155f	1.0631522
34	0x3f8952f1	1.0728437
35	0x3f8951ba	1.0728066
36	0x3f893c9f	1.0721625
37	0x3f881c49	1.0633632
38	0x3f89429d	1.0723454
39	0x3f89584d	1.0730072
40	0x3f880a13	1.0628074
41	0x3f880086	1.062516
42	0x3f88193e	1.0632703
43	0x3f893e55	1.0722147
44	0x3f8825cf	1.0636538
45	0x3f89371e	1.0719945
46	0x3f8927de	1.0715292
47	0x3f895365	1.0728575
48	0x3f880e08	1.0629282
49	0x3f89479c	1.0724978
50	0x3f883337	1.064063
51	0x3f882a6a	1.0637944
52	0x3f893e86	1.0722206
53	0x3f893a52	1.0720923
54	0x3f893709	1.071992
55	0x3f8949d8	1.072566
56	0x3f880a88	1.0628214
57	0x3f89516c	1.0727973
58	0x3f892c1d	1.0716587
59	0x3f8954dd	1.0729023
60	0x3f880d58	1.0629072
61	0x3f87d948	1.0613184
62	0x3f8957bd	1.0729901
63	0x3f880b7a	1.0628502
64	0x3f890dba	1.0707314
65	0x3f8967ab	1.0734762
66	0x3f880861	1.0627557
67	0x3f87f690	1.062212
68	0x3f893b66	1.0721252
69	0x3f881d06	1.0633857
70	0x3f892536	1.0714481
71	0x3f89488c	1.0725265
72	0x3f8964a8	1.0733843
73	0x3f87f0d2	1.0620368
74	0x3f87f360	1.0621147
75	0x3f8917d8	1.0710402
76	0x3f893e8d	1.0722214
77	0x3f892a19	1.0715972
78	0x3f8940db	1.0722917
79	0x3f894a9f	1.0725898
80	0x3f87f5f4	1.0621934
81	0x3f87f930	1.0622921
82	0x3f895856	1.0730083
83	0x3f8818b0	1.0632534
84	0x3f87ef74	1.061995
85	0x3f893ec4	1.072228
86	0x3f894ccd	1.0726563
87	0x3f893cf4	1.0721726
88	0x3f89554d	1.0729157
89	0x3f880ff5	1.062987
90	0x3f8949b1	1.0725614
91	0x3f895244	1.072823
92	0x3f891f51	1.0712682
93	0x3f88047a	1.0626366
94	0x3f89502c	1.0727592
95	0x3f8954a3	1.0728954
96	0x3f880773	1.0627273
97	0x3f892b4e	1.071634
98	0x3f8935d3	1.0719551
99	0x3f882384	1.0635839

gat.a_i.weight f4 [1, 100]
0	0xbdc40403	-0.09571078
1	0xbd1d62f0	-0.038424432
2	0xbd7fd817	-0.06246194
3	0xbd1eaddd	-0.038740028
4	0xbc8e2700	-0.017352581
5	0x3d876813	0.066116475
6	0x3dbbbb8b	0.0916663
7	0x3d26382a	0.040580906
8	0x3da97e88	0.08276087
9	0xbd8996ef	-0.067182414
10	0xbd97db93	-0.07414927
11	0x3cb6faad	0.022336328
12	0xbdbfba23	-0.09361675
13	0x3d3c29fd	0.04593848
14	0xbc477940	-0.012174904
15	0x3b65b99a	0.0035053254
16	0x3daee972	0.0854062
17	0x3d95223f	0.072819225
18	0x3d789c37	0.060695853
19	0x3d9063f8	0.070503175
20	0x3daeb2bd	0.08530185
21	0x3d1ec747	0.038764264
22	0x3d4afc53	0.04955704
23	0x3d8f8245	0.07007269
24	0x3d04d0a7	0.03242555
25	0x3d519907	0.05117133
26	0xbca2d10d	-0.019875074
27	0xbd8a39f5	-0.06749336
28	0xbd5173cd	-0.051135827
29	0xbc25ffc0	-0.010131776
30	0x3d941e4f	0.072323434
31	0xbda1f763	-0.079085134
32	0xbdc80547	-0.097666316
33	0x3d83ab90	0.06429207
34	0xbd0faa43	-0.035074484
35	0xbac8d19a	-0.0015321255
36	0xbbed381a	-0.007239354
37	0xbaf4a133	-0.0018663764
38	0xbc65e65a	-0.014031971
39	0x3cfff36d	0.031244004
40	0xbce7036d	-0.028199876
41	0xbd1bd4da	-0.038044788
42	0xbd893ec0	-0.06701422
43	0xbdb49e75	-0.08819286
44	0x3c4e8767	0.012605525
45	0x3d85c57f	0.0653181
46	0x3d440113	0.047852587
47	0xbca1afe7	-0.019737197
48	0x3d738bf3	0.059459638
49	0xbc9062e7	-0.017625285
50	0xbcef2ca0	-0.029196084
51	0x3db2d190	0.08731377
52	0xbca61f80	-0.020278692
53	0xbdb87ef8	-0.09008592
54	0xbd055d13	-0.032559466
55	0x3dc7d57f	0.09757518
56	0xbcf4fb13	-0.029904878
57	0xbd566f47	-0.052352216
58	0x3d188af0	0.037241876
59	0x3cf0c893	0.029392516
60	0xbc9342f3	-0.01797626
61	0x3d5d4900	0.054024696
62	0x3d1501e0	0.03637874
63	0xbd89b9ea	-0.067249134
64	0x3dc70238	0.0971722
65	0xbcc3f0da	-0.023918558
66	0xbdb9e9c5	-0.09077791
67	0x3dc4b32d	0.096044876
68	0xbdb68f78	-0.08914083
69	0xbc3854c0	-0.011250675
70	0x3d0dcad0	0.034617245
71	0x3d46470d	0.048407603
72	0x3da8f2d5	0.082494415
73	0x3d36eb47	0.04465797
74	0x3c98b78d	0.018642211
75	0xbdbff4bf	-0.093728535
76	0x3db3b2bf	0.087743275
77	0x3db6def8	0.08929247
78	0x3d645aed	0.055750776
79	0x3d26707d	0.04063462
80	0xbd13348a	-0.035938777
81	0x3c0ccecd	0.008594227
82	0xbda743ca	-0.081672266
83	0xbdb0d01a	-0.08633442
84	0xbbd0364d	-0.0063541294
85	0xbda1211d	-0.07867644
86	0xbc580af3	-0.013186204
87	0x3d9c7590	0.07639611
88	0xbd9cbd27	-0.076532654
89	0xbd2bbe23	-0.041929375
90	0xbb173e9a	-0.0023078085
91	0xbd749eba	-0.059721686
92	0xbd8a46ea	-0.06751807
93	0x3cf3e1fa	0.02977084
94	0x3d83c0fa	0.06433292
95	0xbc08198d	-0.008306873
96	0x3d7ae7b3	0.06125612
97	0x3d989e47	0.07452064
98	0x3dbdc950	0.09266913
99	0x3dbba010	0.09161389

gat.a_j.weight f4 [1, 100]
0	0x3d75567d	0.059896935
1	0xbdc0229f	-0.093816034
2	0xbc3f711a	-0.01168468
3	0x3d8afa58	0.067860305
4	0x3c34c89a	0.011034155
5	0xbc2e3d4d	-0.010634732
6	0x3d74d84a	0.05977658
7	0xbcaf19ba	-0.021374572
8	0xbd7bfbfa	-0.0615196
9	0x3d8d27e3	0.068923734
10	0xbd895faf	-0.06707703
11	0x3d91255a	0.07087202
12	0xbcf37207	-0.029717458
13	0xbd96e428	-0.07367736
14	0xbd161b0d	-0.03664689
15	0xbc83b4b3	-0.016077375
16	0xbd9bd3ba	-0.07608743
17	0x3d4eab90	0.050456583
18	0xbdc6e9c5	-0.09712557
19	0x3dc6aae0	0.097005606
20	0x3cc41c33	0.023939228
21	0x3d84044b	0.06446131
22	0xbd562367	-0.052279856
23	0x39ab04cd	0.00032619238
24	0x3c2815cd	0.010259104
25	0xbd4e1baa	-0.05031935
26	0x3d78e9bd	0.060769785
27	0xbd68cc37	-0.05683538
28	0x3bf7464d	0.0075462223
29	0xbd412153	-0.04715092
30	0x3c6f33e7	0.014599777
31	0xbd888e18	-0.06667727
32	0x3da0b967	0.07847863
33	0x3d8983eb	0.067146145
34	0x3c922cc0	0.017843604
35	0x3dbc1125	0.091829576
36	0xbcb28513	-0.02179197
37	0xbcaa2253	-0.02076832
38	0x3da26b37	0.07930606
39	0x3d1b9e5a	0.037992813
40	0x3be8f4b3	0.0071092485
41	0x3d398757	0.045295086
42	0x3dabbb12	0.0838529
43	0xbd1b0bf3	-0.037853193
44	0x3d3a459a	0.045476533
45	0xbdc954a8	-0.098306
46	0xbd941efb	-0.072324716
47	0xbbe43467	-0.0069642547
48	0x3d06ec6d	0.032940317
49	0xbdcbe397	-0.09955519
50	0xbca352b3	-0.019936895
51	0x3d82c2ed	0.063848354
52	0xbd4441fd	-0.047914494
53	0x3c8530e0	0.016258657
54	0x3cab084d	0.020877982
55	0xbcdd23a7	-0.02699454
56	0xbcd8d940	-0.02647078
57	0x3ce15f33	0.027511215
58	0xbd0af480	-0.03392458
59	0xbda5cd7d	-0.080958344
60	0xbb9b419a	-0.004738045
61	0xbdb6bee5	-0.08923129
62	0x3db63f92	0.08898844
63	0xbdbfa56b	-0.09357723
64	0xbdacbb92	-0.08434214
65	0xbda65ef0	-0.08123577
66	0xbd64f10a	-0.055893935
67	0xbdc1634b	-0.09442767
68	0xbdc14c7a	-0.09438415
69	0x3dacffc7	0.08447223
70	0xbd10c680	-0.035345554
71	0xbd0e340a	-0.034717597
72	0x3d21846a	0.03943292
73	0xbd8075ed	-0.062724926
74	0x3d112270	0.035433233
75	0x3d7aef57	0.06126341
76	0xbcab928d	-0.020943904
77	0x3d585da3	0.052823674
78	0xbc994633	-0.018710231
79	0xbdc15e42	-0.094418064
80	0xbda54053	-0.080689095
81	0xbba1b81a	-0.0049352767
82	0x3db8cac0	0.090230465
83	0xbd99dfab	-0.075133644
84	0x3b7c9e67	0.0038546564
85	0xbdbbbd88	-0.091670096
86	0xbd1ad70a	-0.037802733
87	0x3c2fe540	0.01073581
88	0x3d64ae7d	0.055830467
89	0x3cb07b8d	0.021543289
90	0xbb751b00	-0.0037400126
91	0x3d7199b3	0.05898447
92	0xbd879570	-0.066203
93	0xbce7531a	-0.028237868
94	0x3c69f5c0	0.014279783
95	0x3da2d68f	0.0795108
96	0xbd849103	-0.06472971
97	0xbd04258d	-0.032262374
98	0x3d50e737	0.051001754
99	0x3d629e6a	0.055326857

gat.a_r.weight f4 [1, 100]
0	0x3dbe56af	0.09293877
1	0xbc1a7340	-0.009426892
2	0x3d42c960	0.047555327
3	0x3d1da8dd	0.03849112
4	0xbda2a0b2	-0.079408064
5	0x3c2430b3	0.010021376
6	0xbb9099cd	-0.0044128657
7	0x3d919c2b	0.07109865
8	0x3dc85713	0.09782233
9	0xbc5aaf00	-0.013347387
10	0xbda4b8a3	-0.08043029
11	0xbd97c1d3	-0.07410016
12	0x3db44005	0.08801273
13	0x3dbbd430	0.09171331
14	0x3db062fa	0.08612628
15	0xbd725d9a	-0.059171297
16	0x3d07514a	0.033036508
17	0x3d85e510	0.06537831
18	0xbda12358	-0.078680694
19	0x3db800ff	0.08984565
20	0xbd861188	-0.065463126
21	0xbcef736d	-0.029229844
22	0xbd1f3b9d	-0.03887521
23	0x3d7d0dc0	0.06178069
24	0xbda9c9cd	-0.082904436
25	0xbdc3145d	-0.09525368
26	0xbccfa84d	-0.025348807
27	0x3d82f77f	0.063948624
28	0x3d8b2215	0.0679361
29	0xbba9c1b3	-0.0051805614
30	0xbd546a03	-0.051858913
31	0x3d78abbd	0.060710657
32	0xbd04d1b7	-0.032426562
33	0x3d52d7a3	0.05147518
34	0x3d1c2333	0.038119506
35	0xbdc1cc18	-0.09462756
36	0x3d4d7f83	0.050170433
37	0x3c914c80	0.017736673
38	0xbdc8fec3	-0.09814217
39	0xbcdcdfd3	-0.026962196
40	0x3cdeda40	0.02720368
41	0x3d283267	0.041063692
42	0xbb22e367	-0.002485478
43	0xbd81430b	-0.063116156
44	0xbcefe1ed	-0.029282534
45	0xbd145267	-0.036211397
46	0xbd7d5c83	-0.061855804
47	0xbd9a4e65	-0.07534484
48	0x3d99dfd0	0.07513392
49	0x3d8b350b	0.067972265
50	0x3d70171d	0.058615793
51	0x3caea880	0.021320581
52	0x3d5fd380	0.05464506
53	0x3ca67e87	0.020324005
54	0x3cc62e5a	0.024192024
55	0xbcd33ecd	-0.025786782
56	0xbdbaf517	-0.091287784
57	0xbd80bbf0	-0.06285846
58	0x3be504e7	0.00698911
59	0x3d7fd43d	0.062458266
60	0x3dc1b943	0.09459164
61	0x3c282f67	0.010265208
62	0x3dc55bad	0.096366264
63	0xbdb9a740	-0.090651035
64	0xbcd8bac7	-0.02645625
65	0x3d67554d	0.056477834
66	0x3da4866a	0.0803345
67	0xbbc749cd	-0.006081796
68	0x3c910b6d	0.017705644
69	0xbc30709a	-0.010769034
70	0xbdb12ecb	-0.08651503
71	0xbd05e79d	-0.032691587
72	0x3dc5078b	0.09620579
73	0x3dbe5607	0.09293752
74	0xbdb21532	-0.08695449
75	0x3d151e8a	0.036406077
76	0x3d95e6af	0.0731939
77	0x3db20370	0.08692062
78	0xbd1808c0	-0.03711772
79	0xbbb5224d	-0.0055277706
80	0xbd83d242	-0.06436588
81	0x3c9dd627	0.019267155
82	0x3d3795e7	0.044820692
83	0x3d3ff5c7	0.04686525
84	0xbd85e447	-0.06537681
85	0x3d9cd657	0.076580696
86	0x3d17d913	0.037072252
87	0x3ceaaf2d	0.028647983
88	0xbd72ac93	-0.05924661
89	0x3db18ecf	0.08669817
90	0xbd973973	-0.073840044
91	0x3dab4848	0.08363396
92	0x3dc129ca	0.09431799
93	0x3c5eb85a	0.0135937575
94	0xbb954f33	-0.0045565604
95	0x3da6ba1a	0.08140965
96	0x3db61ced	0.08892236
97	0x3d7b7843	0.061393987
98	0x3aef88cd	0.0018275023
99	0xbd885a30	-0.06657827
