GCN-Align/saved_model/y_model.pt (torch, 4123 bytes, 5 tensors)

gnn_layers.0.weight f4 [1, 100]
1.132697 1.1339271 1.1238176 1.1333945 1.1325321 1.1251806 1.1252527 1.1235386
1.1236014 1.1330994 1.1241397 1.1241883 1.1238464 1.1333975 1.1333392 1.132988
1.1341425 1.123479 1.1340015 1.1224226 1.1239197 1.1333913 1.1331724 1.1329616
1.1235933 1.1244882 1.1331155 1.1242257 1.1329137 1.1339474 1.1238024 1.1247284
1.1238198 1.1331009 1.1241257 1.1238489 1.1337978 1.1335657 1.1339477 1.1334406
1.1335148 1.1235594 1.1336124 1.1329422 1.1240124 1.1323569 1.1335316 1.1232822
1.1329569 1.1246 1.1333205 1.1246445 1.124466 1.132972 1.1333131 1.1240591
1.1335733 1.124424 1.1332633 1.1326586 1.1254928 1.1335064 1.1227652 1.133133
1.1339939 1.1336145 1.1234312 1.1332467 1.1336856 1.1237644 1.1246327 1.1239543
1.1340489 1.1326104 1.123838 1.1331688 1.1243359 1.1325305 1.1334499 1.1240181
1.1342399 1.1245693 1.1328291 1.12409 1.124359 1.1242734 1.1243477 1.1333292
1.1327289 1.1329861 1.1232084 1.1333762 1.1333193 1.1248053 1.1231532 1.1333311
1.1334856 1.1240208 1.1340519 1.1335058
00000000: 37fc 903f 8624 913f 41d9 8f3f 1213 913f
00000010: d0f6 903f eb05 903f 4808 903f 1dd0 8f3f
00000020: 2cd2 8f3f 6709 913f cfe3 8f3f 67e5 8f3f
00000030: 33da 8f3f 2b13 913f 4211 913f c005 913f
00000040: 952b 913f 29ce 8f3f f626 913f 8bab 8f3f
00000050: 9adc 8f3f f712 913f cb0b 913f e304 913f
00000060: e8d1 8f3f 3bef 8f3f ee09 913f a1e6 8f3f
00000070: 5103 913f 3025 913f c2d8 8f3f 1af7 8f3f
00000080: 54d9 8f3f 7309 913f 5ae3 8f3f 48da 8f3f
00000090: 4920 913f ae18 913f 3325 913f 9514 913f
000000a0: 0317 913f cbd0 8f3f 361a 913f 4004 913f
000000b0: a3df 8f3f 12f1 903f 9017 913f b6c7 8f3f
000000c0: bb04 913f e5f2 8f3f a510 913f 5af4 8f3f
000000d0: 80ee 8f3f 3a05 913f 6710 913f 2be1 8f3f
000000e0: ee18 913f 20ed 8f3f c60e 913f f5fa 903f
000000f0: 2610 903f bd16 913f c5b6 8f3f 810a 913f
00000100: b626 913f 481a 913f 98cc 8f3f 3a0e 913f
00000110: 9c1c 913f 83d7 8f3f f7f3 8f3f bcdd 8f3f
00000120: 8428 913f 61f9 903f ecd9 8f3f ad0b 913f
00000130: 3dea 8f3f c2f6 903f e314 913f d3df 8f3f
00000140: c62e 913f e3f1 8f3f 8b00 913f 2ee2 8f3f
00000150: ffea 8f3f 31e8 8f3f a0ea 8f3f ee10 913f
00000160: 43fd 903f b005 913f 4bc5 8f3f 7912 913f
00000170: 9b10 913f 9ff9 8f3f 7cc3 8f3f fe10 913f
00000180: 0e16 913f eadf 8f3f 9d28 913f b816 913f

gnn_layers.1.weight f4 [1, 100]
1.1329322 1.1341712 1.1240566 1.1336373 1.1327937 1.1254086 1.1255189 1.123795
1.1238409 1.1333264 1.1243824 1.1244253 1.1240785 1.1336466 1.1336062 1.1332217
1.134371 1.123695 1.134247 1.1226829 1.1241592 1.1336251 1.133429 1.1332036
1.123846 1.1247163 1.1333586 1.1244847 1.133168 1.1342 1.1240492 1.1249644
1.1240569 1.1333463 1.1243516 1.1240951 1.134033 1.1338099 1.1341879 1.1336758
1.1337448 1.1237905 1.1338439 1.1331775 1.1242578 1.1326109 1.1337712 1.1235207
1.1331953 1.1248469 1.1335729 1.1248792 1.1247133 1.1332235 1.1335468 1.1242906
1.133829 1.1246737 1.1335266 1.1329042 1.1257378 1.1337508 1.1230049 1.1333765
1.1342334 1.1338538 1.1236705 1.1334896 1.1339269 1.1240398 1.1248775 1.1241957
1.1342976 1.13286 1.1240946 1.1334238 1.1245787 1.132776 1.1336856 1.1242677
1.1344655 1.1248113 1.1330755 1.1243364 1.1246003 1.1245172 1.1245879 1.1335818
1.1329929 1.1332313 1.1234547 1.1336445 1.1335682 1.1250341 1.1234154 1.1336013
1.1337267 1.1242748 1.1342839 1.1337374
00000000: ec03 913f 862c 913f 16e1 8f3f 071b 913f
00000010: 62ff 903f 640d 903f 0111 903f 84d8 8f3f
00000020: 05da 8f3f d710 913f c3eb 8f3f 2bed 8f3f
00000030: cee1 8f3f 551b 913f 021a 913f 690d 913f
00000040: 1233 913f 3dd5 8f3f 012f 913f 13b4 8f3f
00000050: 73e4 8f3f a11a 913f 3414 913f d10c 913f
00000060: 30da 8f3f b4f6 8f3f e511 913f 1def 8f3f
00000070: a60b 913f 772d 913f d8e0 8f3f d5fe 8f3f
00000080: 19e1 8f3f 7e11 913f c1ea 8f3f 59e2 8f3f
00000090: fe27 913f af20 913f 122d 913f 4a1c 913f
000000a0: 8d1e 913f 5ed8 8f3f cc21 913f f60b 913f
000000b0: aee7 8f3f 65f9 903f 6a1f 913f 87cf 8f3f
000000c0: 8b0c 913f fcfa 8f3f eb18 913f 0bfc 8f3f
000000d0: 9bf6 8f3f 780d 913f 1018 913f c1e8 8f3f
000000e0: 4f21 913f 4ff5 8f3f 6617 913f 0103 913f
000000f0: 2d18 903f bf1e 913f a0be 8f3f 7b12 913f
00000100: 8f2e 913f 1f22 913f 6fd4 8f3f 3016 913f
00000110: 8424 913f 89e0 8f3f fcfb 8f3f a5e5 8f3f
00000120: aa30 913f 8e01 913f 55e2 8f3f 0814 913f
00000130: 32f2 8f3f cefe 903f 9c1c 913f 01e8 8f3f
00000140: 2a36 913f d1f9 8f3f 9e08 913f 41ea 8f3f
00000150: e7f2 8f3f 2ef0 8f3f 7ff2 8f3f 3519 913f
00000160: e905 913f b90d 913f 5dcd 8f3f 431b 913f
00000170: c318 913f 1e01 903f 13cc 8f3f d919 913f
00000180: f51d 913f 3de8 8f3f 3730 913f 4f1e 913f

gat.a_i.weight f4 [1, 100]
-0.099792756 0.082264796 0.06829752 0.047374297 -0.01370095 0.07928113 -0.07099771 0.014582193
0.06521193 0.031182457 -0.050099578 -0.05272305 0.08959156 -0.05581517 -0.020396138 0.022280693
-0.042736243 -0.07221335 0.04086697 -0.08888226 -0.059826802 -0.055453565 -0.055206038 -0.07550552
-0.05892818 -0.09015024 0.07901981 0.01849444 0.083712414 -0.014272965 -0.08261331 0.019224882
0.03505267 -0.059298065 -0.01888131 -0.0587047 0.09598541 0.0637475 0.038832605 -0.07967224
0.014441669 0.037821114 0.09593172 -0.087170616 0.094792865 0.07100685 0.08342212 -0.021091735
-0.05321592 0.091160476 0.017578268 -0.065935135 -0.055075314 0.00052113534 -0.04694655 -0.05033524
0.07498809 0.024435198 0.043009758 -0.040537667 0.095041886 0.07338542 0.07821845 -0.028271152
-0.061030902 0.023202658 0.0023084045 -0.096639715 -0.09010901 -0.054187477 0.094245985 -0.0535172
0.045409918 -0.04323555 -0.043077864 0.054302838 -0.031860746 0.074536346 0.019856382 0.03758806
0.073469736 0.006264496 0.06286874 -0.08243644 0.0508898 0.020326031 0.050997723 -0.047590304
-0.06606299 0.0034445047 -0.06458513 -0.05498699 -0.074848115 0.026939297 0.029077614 0.08450576
0.0042788507 -0.09508719 0.04771626 -0.058410086
00000000: 2560 ccbd 727a a83d 92df 8b3d 8d0b 423d
00000010: f379 60bc 255e a23d 3f67 91bd 27ea 6e3c
00000020: d58d 853d 5a72 ff3c 3735 4dbd 20f4 57bd
00000030: c87b b73d 739e 64bd cd15 a7bc 0086 b63c
00000040: 330c 2fbd 98e4 93bd 2064 273d e707 b6bd
00000050: f30c 75bd 4723 63bd ba1f 62bd a3a2 9abd
00000060: ad5e 71bd b0a0 b8bd 23d5 a13d a781 973c
00000070: 6a71 ab3d 27d9 69bc 2b31 a9bd 807d 9d3c
00000080: 6393 0f3d 87e2 72bd faac 9abc 5774 70bd
00000090: 0094 c43d 0d8e 823d f00e 1f3d 332b a3bd
000000a0: c09c 6c3c 50ea 1a3d da77 c43d 8286 b2bd
000000b0: c322 c23d 0a6c 913d 37d9 aa3d 93c8 acbc
000000c0: f0f8 59bd 58b2 ba3d 4d00 903c 0009 87bd
000000d0: a796 61bd cd9c 083a 074b 40bd 532c 4ebd
000000e0: 5b93 993d 532c c83c 002b 303d d30a 26bd
000000f0: 52a5 c23d 184b 963d ff30 a03d e798 e7bc
00000100: 8afb 79bd 8013 be3c 9a48 173b 0beb c5bd
00000110: 138b b8bd b0f3 5dbd 0a04 c13d da34 5bbd
00000120: c0ff 393d c317 31bd 6a72 30bd a76c 5e3d
00000130: 6a80 02bd 83a6 983d daa9 a23c f0f5 193d
00000140: 4d77 963d 6746 cd3b 53c1 803d 70d4 a8bd
00000150: d371 503d c782 a63c fde2 503d 0dee 42bd
00000160: 084c 87bd 33bd 613b 3545 84bd 0a3a 61bd
00000170: f849 99bd cdaf dc3c 2d34 ee3c 5b11 ad3d
00000180: 9a35 8c3b 13bd c2bd 2072 433d 6a3f 6fbd

gat.a_j.weight f4 [1, 100]
-0.003986907 -0.071996465 -0.068685666 -0.0054317 0.038157333 0.09755882 0.015135407 -0.022616435
0.044689357 -0.020525647 0.03170667 0.06586081 -0.058196306 -0.060004603 0.04118333 0.003749168
-0.019220222 0.07544013 0.09725179 -0.08095177 -0.088391356 0.07402342 -0.045258403 -0.04391059
-0.08290558 -0.09222946 -0.06731307 -0.06457927 0.06465349 0.043836165 -0.02252841 0.06644716
-0.097028114 0.08591794 -0.052151024 -0.038496625 -0.09455428 0.0041611674 -0.061670948 -0.037401237
0.03099792 -0.098000705 0.08659573 0.089298606 -0.048627246 0.025861895 -0.014015985 -0.028105378
0.058811318 -0.059072938 -0.043966915 0.036302056 0.09604283 0.019152617 0.098372474 0.08433875
0.08019968 -0.09962948 -0.03681879 0.0024102689 0.06882528 0.08953797 0.0010792256 0.08405882
-0.09444115 -0.050064813 0.075880826 -0.06730117 0.05864774 0.07396213 0.083415486 -0.024755372
0.011033214 -0.038659144 0.05818192 0.0064507485 -0.06014942 -0.03564179 0.061972797 0.03665012
0.01893512 0.06336508 -0.08228469 -0.09436186 -0.03682196 -0.06274028 -0.0016237259 0.0679173
0.08411767 0.079667725 -0.06876209 0.06355146 -0.090172924 0.028119063 0.011310327 0.097702526
-0.0017789602 0.08418955 0.06804719 -0.054467607
00000000: 9aa4 82bb e272 93bd 12ab 8cbd 67fc b1bb
00000010: dd4a 1c3d ebcc c73d 80fa 773c 1a46 b9bc
00000020: 300c 373d 6725 a8bc dade 013d 08e2 863d
00000030: 405f 6ebd 63c7 75bd daaf 283d 9ab4 753b
00000040: ba73 9dbc 5b80 9a3d f22b c73d 0bca a5bd
00000050: 8706 b5bd 9799 973d e060 39bd 97db 33bd
00000060: 67ca a9bd cde2 bcbd 6fdb 89bd 2342 84bd
00000070: 0d69 843d 8d8d 333d 808d b8bc 7315 883d
00000080: adb6 c6bd bff5 af3d 509c 55bd a3ae 1dbd
00000090: ada5 c1bd 675a 883b ad9a 7cbd 0a32 19bd
000000a0: 5aef fd3c 98b4 c8bd 1a59 b13d 30e2 b63d
000000b0: 5d2d 47bd 53dc d33c 4da3 65bc 403d e6bc
000000c0: 23e4 703d 77f6 71bd a716 34bd 77b1 143d
000000d0: 1ab2 c43d f3e5 9c3c 8277 c93d cbb9 ac3d
000000e0: bb3f a43d 8a0a ccbd 4dcf 16bd 9af5 1d3b
000000f0: 45f4 8c3d af5f b73d cd74 8d3a 0827 ac3d
00000100: 5d6a c1bd c310 4dbd 6867 9b3d 32d5 89bd
00000110: 9d38 703d 7579 973d bdd5 aa3d c7cb cabc
00000120: a7c4 343c 0d59 1ebd 2a50 6e3d cd60 d33b
00000130: 3d5f 76bd 20fd 11bd 30d7 7d3d 701e 163d
00000140: d31d 9b3c 8dc5 813d e084 a8bd ca40 c1bd
00000150: a0d2 16bd fa7d 80bd 33d3 d4ba 3a18 8b3d
00000160: e345 ac3d d528 a33d 23d3 8cbd 4527 823d
00000170: 95ac b8bd f359 e63c f34e 393c 4318 c83d
00000180: 002c e9ba 926b ac3d 535c 8b3d 6d19 5fbd

gat.a_r.weight f4 [1, 100]
0.069544375 0.06177757 0.0919741 -0.042410206 -0.06404521 0.010192848 0.023111297 -0.053643715
0.05982977 0.09477369 0.05225574 0.071062766 -0.05373427 -0.026867986 -0.022310281 0.0767734
0.06321279 0.01227082 0.079324506 -0.04796013 -0.058468353 0.09329637 -0.06736153 0.017693091
-0.05667001 0.08527739 -0.019827032 -0.009228266 0.00615443 0.0068285586 -0.03465748 0.08409329
-0.07663839 -0.040886283 -0.022646774 -0.073303126 0.04822407 -0.035452854 -0.0746791 -0.08798822
0.03694589 -0.08690194 -0.04307121 0.006693423 0.09309097 0.026871562 0.017442584 0.08508227
-0.06302605 0.08933958 -0.023873795 -0.01746012 0.053643048 -0.038046826 0.094366245 0.09957796
-0.09101386 -0.023915231 0.021745741 0.013081491 0.08280058 -0.076656915 0.0030331851 0.06729653
-0.060153414 0.046592128 0.009485531 -0.026937056 0.03577968 -0.058296263 0.004739869 -0.0537354
-0.008736933 0.00953989 -0.050382018 0.08317049 0.06508964 0.045507193 0.054197837 -0.070672594
0.065758884 -0.0831733 -0.006722486 0.06695377 -0.056109846 0.015626801 -0.08461829 -0.037141025
-0.0041058064 -0.09757795 0.036662128 0.04633031 -0.08720998 -0.04393084 0.062131416 0.05079577
-0.07551538 0.030404676 0.055752266 0.038844265
00000000: 486d 8e3d 7a0a 7d3d eb5c bc3d 53b6 2dbd
00000010: 232a 83bd e7ff 263c e753 bd3c 83b9 5bbd
00000020: 1010 753d b518 c23d 1d0a 563d 5b89 913d
00000030: 7718 5cbd 401a dcbc 0dc4 b6bc 5f3b 9d3d
00000040: b575 813d 8d0b 493c e374 a23d d771 44bd
00000050: 837c 6fbd 2b12 bf3d d8f4 89bd 1af1 903c
00000060: d01e 68bd eaa5 ae3d 4d6c a2bc 2732 17bc
00000070: 1aab c93b 1ac2 df3b 00f5 0dbd 1a39 ac3d
00000080: 97f4 9cbd 6078 27bd ba85 b9bc f31f 96bd
00000090: 9a86 453d 0337 11bd 5bf1 98bd 2b33 b4bd
000000a0: 9354 173d a5f9 b1bd 706b 30bd 8054 db3b
000000b0: 7aa6 be3d c021 dc3c c0e3 8e3c 9d3f ae3d
000000c0: cd13 81bd abf7 b63d fa92 c3bc 8708 8fbc
000000d0: d0b8 5b3d fdd6 1bbd 1743 c13d 88ef cb3d
000000e0: 7a65 babd e0e9 c3bc 2024 b23c c053 563c
000000f0: 5a93 a93d 4dfe 9cbd 67c8 463b c3d2 893d
00000100: 6d63 76bd 63d7 3e3d 3369 1b3c 1aab dcbc
00000110: b78d 123d 10c8 6ebd e750 9b3b a719 5cbd
00000120: 5a25 0fbc 334d 1c3c 605d 4ebd 4a55 aa3d
00000130: b84d 853d c065 3a3d 8dfe 5d3d cbbc 90bd
00000140: 98ac 863d c356 aabd 4d48 dcbb 0f1f 893d
00000150: 70d3 65bd c703 803c 5b4c adbd 3021 18bd
00000160: 008a 86bb f3d6 c7bd 072b 163d dac4 3d3d
00000170: 259b b2bd d3f0 33bd 837d 7e3d 3a0f 503d
00000180: cfa7 9abd 3a13 f93c 7d5c 643d 2a1b 1f3d
