GCN-Align/saved_model/zh_model.pt (torch, 4123 bytes, 5 tensors)

gnn_layers.0.weight f4 [1, 100]
000000 d4 67 8f 3f 7d 9e 90 3f e7 82 91 3f 1f 53 91 3f
       1.1203561 1.1298367 1.1368073 1.1353492
000010 ef 95 90 3f d3 fc 8f 3f f4 cd 90 3f 05 e6 8f 3f
       1.1295756 1.1249031 1.1312852 1.1242071
000020 2d fc 8f 3f cd 1c 90 3f e6 a0 90 3f f8 38 8f 3f
       1.1248833 1.1258789 1.1299102 1.118926
000030 a4 e4 8f 3f 46 b2 90 3f 32 31 8f 3f 12 79 91 3f
       1.124165 1.1304405 1.1186888 1.1365073
000040 19 8c 8f 3f c9 46 90 3f f9 4a 90 3f ee fb 8f 3f
       1.121463 1.1271602 1.127288 1.1248758
000050 3f 0a 90 3f 3f 28 91 3f 28 f4 90 3f 44 d9 90 3f
       1.1253127 1.1340407 1.132451 1.1316304
000060 ed fe 8f 3f 25 c8 8f 3f 76 26 91 3f 57 09 8f 3f
       1.1249672 1.1232954 1.1339862 1.1174725
000070 1e 43 90 3f 37 55 90 3f e2 1e 91 3f d6 22 90 3f
       1.1270483 1.1276006 1.133755 1.1260631
000080 4b 44 91 3f 97 85 8f 3f 32 2e 90 3f ed df 90 3f
       1.1348966 1.1212643 1.1264098 1.1318337
000090 99 52 8f 3f d6 61 90 3f 84 ae 91 3f 83 df 8f 3f
       1.1197082 1.1279857 1.1381383 1.1240085
0000a0 fb f3 90 3f 80 91 91 3f 29 eb 90 3f 69 02 90 3f
       1.1324457 1.1372528 1.1321765 1.1250736
0000b0 b9 1c 90 3f 23 36 90 3f f9 71 91 3f 89 50 91 3f
       1.1258765 1.1266521 1.1362907 1.1352702
0000c0 b6 7c 91 3f e9 48 90 3f 33 45 8f 3f 8b 33 91 3f
       1.1366184 1.127225 1.1192993 1.1343855
0000d0 b0 96 8f 3f 29 15 90 3f 9a 0b 90 3f b7 22 90 3f
       1.1217861 1.1256458 1.125354 1.1260594
0000e0 a6 99 8f 3f d9 47 91 3f ab 6c 8f 3f 98 cf 8f 3f
       1.1218765 1.1350051 1.1205038 1.1235228
0000f0 88 72 91 3f a4 41 91 3f fd 16 91 3f ba 42 90 3f
       1.1363077 1.1348157 1.133514 1.1270363
000100 5a f6 90 3f 22 57 8f 3f 23 a3 8f 3f 1e 9f 91 3f
       1.132518 1.1198466 1.122166 1.1376684
000110 ce 2c 91 3f d7 54 8f 3f b8 d2 90 3f 3d b1 90 3f
       1.1341798 1.1197766 1.1314306 1.1304089
000120 08 03 91 3f 93 5a 90 3f 2a ac 8f 3f 76 15 91 3f
       1.132905 1.1277641 1.1224415 1.1334674
000130 ed e7 90 3f 12 ca 90 3f fc 23 90 3f 1d eb 8f 3f
       1.1320778 1.1311667 1.1260982 1.1243626
000140 2c b6 8f 3f 12 27 90 3f 67 4d 8f 3f 63 3b 8f 3f
       1.122747 1.1261923 1.1195496 1.1189998
000150 3a 5f 90 3f 72 a6 90 3f 67 f1 8f 3f b9 77 91 3f
       1.1279061 1.1300795 1.1245545 1.1364661
000160 ea 7d 91 3f 5d cc 8f 3f 40 5f 90 3f a4 40 90 3f
       1.1366551 1.1234242 1.1279068 1.1269727
000170 e5 ff 8f 3f 49 7e 8f 3f 75 fd 90 3f 24 02 91 3f
       1.1249968 1.1210414 1.1327349 1.1328778
000180 8e 91 91 3f 3e 65 90 3f 58 f8 90 3f 00 12 90 3f
       1.1372545 1.1280897 1.1325788 1.1255493

gnn_layers.1.weight f4 [1, 100]
000000 14 6e 8f 3f a1 a4 90 3f ee 88 91 3f 03 59 91 3f
       1.1205468 1.1300241 1.1369913 1.1355289
000010 49 9c 90 3f d6 02 90 3f 88 d4 90 3f 4e ec 8f 3f
       1.1297694 1.1250865 1.1314859 1.124399
000020 ff 02 90 3f 18 24 90 3f be a6 90 3f 36 40 8f 3f
       1.1250914 1.1261015 1.1300886 1.1191471
000030 29 eb 8f 3f fe b7 90 3f e7 37 8f 3f a7 7f 91 3f
       1.124364 1.130615 1.1188935 1.1367081
000040 4c 92 8f 3f a8 4d 90 3f a8 52 90 3f ea 02 90 3f
       1.1216521 1.1273699 1.1275225 1.1250889
000050 75 10 90 3f 1c 2f 91 3f 0d f9 90 3f f8 df 90 3f
       1.1255022 1.1342502 1.1326004 1.131835
000060 f2 05 90 3f 29 cf 8f 3f 27 2d 91 3f e0 0f 8f 3f
       1.1251814 1.1235095 1.1341904 1.117672
000070 31 4a 90 3f 76 5b 90 3f cd 25 91 3f dc 29 90 3f
       1.1272641 1.1277912 1.1339661 1.1262774
000080 a8 4a 91 3f 20 8c 8f 3f 2c 34 90 3f 1d e6 90 3f
       1.1350908 1.1214638 1.1265922 1.1320225
000090 7c 5a 8f 3f 27 68 90 3f a6 b4 91 3f 71 e5 8f 3f
       1.1199489 1.1281785 1.1383255 1.1241895
0000a0 5b fb 90 3f e6 97 91 3f 4f f2 90 3f e8 08 90 3f
       1.1326708 1.1374481 1.1323947 1.1252718
0000b0 6c 23 90 3f fa 3b 90 3f c3 78 91 3f a1 56 91 3f
       1.126081 1.1268303 1.1364979 1.1354562
0000c0 58 82 91 3f 61 4f 90 3f 4e 4b 8f 3f 75 3a 91 3f
       1.1367903 1.1274225 1.1194856 1.1345965
0000d0 88 9d 8f 3f 91 1b 90 3f d9 12 90 3f c9 28 90 3f
       1.121995 1.1258413 1.1255752 1.1262447
0000e0 2a 9f 8f 3f 15 4e 91 3f 9a 73 8f 3f 43 d6 8f 3f
       1.1220448 1.1351954 1.1207154 1.1237262
0000f0 45 79 91 3f 5c 48 91 3f b6 1d 91 3f ef 48 90 3f
       1.1365134 1.1350207 1.1337192 1.1272258
000100 d8 fc 90 3f 5c 5d 8f 3f 0c aa 8f 3f 3b a5 91 3f
       1.1327162 1.1200366 1.1223769 1.1378549
000110 2e 33 91 3f c9 5b 8f 3f 2d d9 90 3f 01 b8 90 3f
       1.1343744 1.1199886 1.1316277 1.1306154
000120 ec 09 91 3f 92 60 90 3f b5 b3 8f 3f b4 1b 91 3f
       1.1331153 1.1279471 1.1226717 1.1336579
000130 2a ee 90 3f ba d0 90 3f 34 2a 90 3f e0 f0 8f 3f
       1.1322682 1.1313698 1.1262879 1.1245384
000140 85 bc 8f 3f 5d 2e 90 3f cf 53 8f 3f 88 42 8f 3f
       1.1229407 1.1264149 1.1197451 1.1192179
000150 22 66 90 3f d9 ad 90 3f ca f7 8f 3f f1 7d 91 3f
       1.1281168 1.1303054 1.1247494 1.1366559
000160 31 84 91 3f 64 d3 8f 3f a0 65 90 3f 8f 46 90 3f
       1.1368467 1.1236386 1.1281013 1.1271533
000170 a3 06 90 3f b4 84 8f 3f 65 04 91 3f e3 08 91 3f
       1.1252025 1.1212373 1.1329466 1.1330837
000180 8b 97 91 3f 28 6c 90 3f c5 ff 90 3f e5 18 90 3f
       1.1374372 1.1283007 1.1328055 1.1257597

gat.a_i.weight f4 [1, 100]
000000 00 4b fe bc 3d ff c6 bd 10 4a b2 bd 7f a7 96 bd
       -0.031041622 -0.097166516 -0.087055326 -0.07356166
000010 cb ac 93 bd 87 c4 86 bd d0 0f b5 bd e3 9d 06 bd
       -0.07210692 -0.06580453 -0.088409066 -0.032865416
000020 ba a0 a9 bc 2a d7 89 3d 37 71 77 bd 9a aa 47 3c
       -0.020706523 0.067304924 -0.060410704 0.012186671
000030 60 eb 63 3d 63 35 17 bd 70 56 99 3d 9a e9 94 3a
       0.055644393 -0.036916148 0.0748719 0.0011361123
000040 1a de 0f bd 7b b9 c2 3d f3 0e e6 3c 60 4f af 3c
       -0.035123922 0.09508034 0.0280833 0.021400154
000050 c7 ce 4c bd ea c6 b8 bd 33 07 ca 3a d5 a8 89 bd
       -0.050001886 -0.09022315 0.0015413522 -0.06721655
000060 8d 42 a0 bc fa e8 39 bd 9a 75 19 ba 17 c3 62 bd
       -0.019562984 -0.0453882 -0.0005854011 -0.055361833
000070 e7 05 f4 bc 4f b1 98 3d db 5a 82 3d 6a 75 11 3d
       -0.02978797 0.07455694 0.063649856 0.035512365
000080 b3 76 ea bc ca 46 ab 3d aa fe 7c 3d ea 0f 4f bd
       -0.028621053 0.08363111 0.061766304 -0.050552286
000090 f0 a5 06 3d a0 ce ec bc ba c6 e6 bc e7 19 fc 3c
       0.032873094 -0.02890712 -0.028170932 0.03077407
0000a0 9a a2 d9 3b 5b 78 a8 bd 97 58 a7 3d 8d db 46 3d
       0.006641698 -0.08226081 0.08171194 0.048549224
0000b0 4a 42 89 3d 47 bf f6 3c 03 2d 6f 3d 2d 92 08 bd
       0.06702097 0.030120505 0.058392536 -0.03334253
0000c0 23 77 14 bd f5 bc c0 bd 8d 27 91 bd 53 89 13 3d
       -0.03624643 -0.09411041 -0.07087622 0.036019634
0000d0 eb 93 83 3d a7 bc 5c 3d 0d 35 95 3d 63 92 5b 3d
       0.064246975 0.05389085 0.07285509 0.053606402
0000e0 d3 88 5a bd 00 82 b6 bb ff be 9f 3d 53 44 b9 3d
       -0.053353142 -0.0055696964 0.078001015 0.09046235
0000f0 da 85 43 3c 10 9f 77 3d ba b8 bd bc c2 b8 94 3d
       0.011933768 0.06045443 -0.023159374 0.07261802
000100 4b 08 ac bd 33 a3 88 bb 47 fe 5b bd 6a 63 3d bd
       -0.08400019 -0.0041698455 -0.053709295 -0.046237387
000110 67 51 13 bd 57 0e 8e 3d da 38 1c bc 4d 68 f3 bb
       -0.035966303 0.06936329 -0.009535039 -0.007428205
000120 9b 86 a4 3d ab bd ba bd 7d 26 c3 bd 93 8d 28 3d
       0.080334865 -0.091182075 -0.095288254 0.04115064
000130 2a 01 99 bd 33 59 f7 3c 07 a7 86 bc f3 1c e4 bc
       -0.07470925 0.0301939 -0.016437067 -0.027845835
000140 07 80 80 3d 00 65 49 3b f3 c1 38 3c 43 f4 08 bd
       0.06274419 0.0030730367 0.01127671 -0.03343607
000150 2a bf bf 3d 7f 66 82 3d a7 ea 18 3d 53 5c a7 bd
       0.093626335 0.06367206 0.037333157 -0.08171906
000160 83 30 35 bd c3 d5 b0 3d a7 8c 5c bc f2 5f 95 bd
       -0.044235718 0.08634522 -0.0134612685 -0.07293691
000170 40 ed 20 3d 9a e7 6c bc da 92 4e bd 73 c2 b7 3d
       0.03928876 -0.014459515 -0.050433017 0.08972635
000180 c7 99 86 bc 10 24 24 3d 25 98 a4 3d 9a e6 9d bc
       -0.016430749 0.040073454 0.08036832 -0.019274998

gat.a_j.weight f4 [1, 100]
000000 8d c8 4e bd 52 46 a2 bd 1a de 0e bd 50 39 91 3d
       -0.05048423 -0.07923569 -0.03487978 0.070910096
000010 8a 8d 3a 3d 97 e8 02 3d 8d 5a 44 3d a3 07 26 3d
       0.04554514 0.031960096 0.04793792 0.040534627
000020 4d de 9e 3d 20 94 23 bd ed 4a 47 3d da 13 36 3d
       0.07757244 -0.039936185 0.04865544 0.044452526
000030 a0 c5 c4 3c 8a b0 a4 bd f7 61 01 bd 50 fe 8e 3d
       0.024020016 -0.08041485 -0.031587567 0.069821
000040 57 49 20 3d cd 81 1f bc cd a6 cb 3d e3 d1 b3 3d
       0.039132442 -0.009735537 0.09943924 0.08780267
000050 73 65 11 bc ca 50 61 3d 3a 6e 91 3c cd 23 d5 3c
       -0.008874285 0.055008687 0.017752755 0.026018048
000060 9a fd 02 bd af 5f c8 bd c8 f8 c1 3d 32 c9 84 bd
       -0.031980135 -0.09783875 0.094712794 -0.064836875
000070 13 fa 17 bd c7 f4 06 bd 33 9f 70 3b 3d 38 0c 3d
       -0.037103724 -0.03294828 0.0036715984 0.03423332
000080 a0 1b fd 3c af 3c bb bd 33 69 2d 3d b0 68 22 bd
       0.030896962 -0.09142434 0.042336654 -0.03965062
000090 2d 18 c7 3d c7 61 f3 3c 48 84 ad 3d c3 ac 09 bd
       0.09721408 0.02970971 0.08472496 -0.033612024
0000a0 77 be 3e 3d e7 5d d1 3b 18 11 cc 3d 1d 6f 65 3d
       0.04656836 0.006389368 0.09964198 0.05601417
0000b0 73 70 a4 bd 80 b1 e8 3b a7 e6 a6 bc 00 94 e2 3c
       -0.080292605 0.007101238 -0.020373655 0.027658463
0000c0 9a e0 41 bc d0 e1 85 bd 73 d9 38 3c 07 f6 8e bc
       -0.011833334 -0.06537211 0.011282313 -0.0174513
0000d0 cd d2 68 3c 8d f9 2d 3c b3 dd a6 3d a0 f2 4d bd
       0.014210415 0.01061858 0.081477545 -0.050280213
0000e0 9d 82 73 bd eb 10 98 3d 77 25 7d bd da 58 91 bc
       -0.059450734 0.07425102 -0.061803307 -0.017742563
0000f0 d5 36 b6 bd fb a4 bc 3d 1b ac 94 3d 8d d9 c8 3c
       -0.08897177 0.09211155 0.07259389 0.024517799
000100 cd 7f 85 bb 80 c7 34 3d 8d 2c 0c 3c a7 16 a1 bd
       -0.004074073 0.04413557 0.008555544 -0.07865649
000110 43 5b c3 bd 87 6b f7 3c 73 2d 30 bc 9a ec c9 3d
       -0.09538891 0.03020264 -0.010753023 0.09859581
000120 53 c2 d3 3c eb c8 ac 3d cd 70 14 ba 5b 18 c3 3d
       0.025849497 0.084367596 -0.00056625606 0.0952613
000130 00 8e 3a bb 62 3d c3 bd fa f8 b8 3c dd 6b 7c bd
       -0.0028465986 -0.09533192 0.022579659 -0.061626304
000140 c2 71 9a bd e0 38 50 3d c0 ab e1 bc 53 a8 b4 bd
       -0.07541229 0.05083549 -0.027547717 -0.08821168
000150 dd 04 b4 bd 4b b7 8c 3d 33 85 9b bd c7 72 0a 3d
       -0.0878999 0.06870898 -0.07593765 0.033800866
000160 d3 cf 28 bd 62 db a0 bd 6a ce 62 3d da 0c b6 bc
       -0.04121382 -0.07854344 0.055372633 -0.022222925
000170 67 1d b0 3c d0 07 cc bd 38 95 c0 bd 9b 0c aa bd
       0.021498395 -0.099624276 -0.09403461 -0.083031856
000180 50 38 72 bd c7 da dd 3c 70 f6 99 3d 27 5f 6a bd
       -0.059135735 0.02708186 0.07517707 -0.05721965

gat.a_r.weight f4 [1, 100]
000000 65 d7 8c bd 6d 26 9a bd 9a 86 79 bc 33 c5 58 bb
       -0.06877021 -0.075268604 -0.015229845 -0.0033076524
000010 30 81 55 3d 68 93 a6 3d 1d dc 49 bd bd 7c bd 3d
       0.052125156 0.08133584 -0.049282182 0.092523076
000020 fa cb 68 bd c8 f4 a0 3d 00 04 05 3a 73 2e 67 3d
       -0.056835152 0.07859188 0.00050741434 0.05644078
000030 38 85 ac 3d 67 54 bd 3a fd a2 98 3d dd 0d 8f 3d
       0.08423847 0.001444471 0.074529625 0.06985066
000040 48 31 c7 3d 47 ad 93 bc 07 2c 30 bd ed a4 a5 3c
       0.097261965 -0.018026961 -0.043010738 0.020220244
000050 6a 48 bc bd b3 5e 60 bc 97 c5 cc bd 9a bd af bb
       -0.091934994 -0.013694453 -0.09998625 -0.0053631784
000060 25 c6 8c 3d 57 cb 0c bd 73 21 5a 3c e7 55 84 3c
       0.068737306 -0.034373607 0.013313639 0.016154243
000070 15 bf 93 3d 67 6c 00 3b e7 f6 70 3d e7 0d 12 bd
       0.072141804 0.0019595863 0.058829214 -0.03565779
000080 dd b1 06 3d ad 33 dc 3c 8a c0 12 bd 5a af 3e bc
       0.032884467 0.02688011 -0.03582815 -0.011638487
000090 00 3b d2 3c f3 99 65 bc a5 a7 bc 3d fa 8f 9f bd
       0.025662899 -0.014013755 0.09211663 -0.07791133
0000a0 70 4f 0a 3d c3 ac 27 3d 1a 94 bf bc dd 60 55 bd
       0.033767164 0.040936243 -0.02338605 -0.05209433
0000b0 92 16 a5 3d da 78 b3 bc c8 68 af bd 87 49 ab 3d
       0.080609456 -0.021908212 -0.08564907 0.083636336
0000c0 cb 47 ae bd 87 4c dd 3c c3 4c 54 bd 67 b9 02 3d
       -0.08509787 0.02701403 -0.05183102 0.031915095
0000d0 53 13 59 bd 20 e2 71 3d b0 57 a3 bd d7 45 58 bd
       -0.052996945 0.05905354 -0.079757094 -0.05280098
0000e0 3d 44 c7 3d f0 e4 7d bd 7a b4 aa 3c 40 05 3c bd
       0.09729812 -0.06198591 0.020838011 -0.045903444
0000f0 05 00 b0 bd 27 11 5f bd e0 cb 90 bc b3 0f 93 3b
       -0.08593754 -0.054459717 -0.01767534 0.0044879555
000100 e0 a1 ea 3c ca 5b 62 3d af e4 9b bd 9a 8a 3b bb
       0.028641641 0.055263318 -0.07611977 -0.0028616549
000110 2b 12 86 3d 2d 5d b9 bd 6d 65 81 3d b8 47 c3 bd
       0.06546434 -0.09050975 0.063181736 -0.09535164
000120 10 ff a5 3d cd 24 ff 3a d3 a4 b7 bd 87 d0 b5 3d
       0.0810529 0.0019465924 -0.089669846 0.08877664
000130 ba 0f ae bc 17 2d 11 3d 33 62 e6 3c 40 18 1d bc
       -0.021247733 0.03544339 0.028122997 -0.009588301
000140 fa 4f 00 3d c7 81 8c 3d a8 05 82 bd 18 30 97 3d
       0.03132627 0.068606906 -0.06348735 0.0738222
000150 e0 47 69 3d 67 06 33 3a 45 c9 a3 3d 7d 9e 6d bd
       0.05695331 0.0006829262 0.079973735 -0.058012474
000160 13 80 f0 bc 50 43 54 3d 82 54 94 3d 5a fc ff bc
       -0.029357946 0.051822007 0.07242681 -0.03124826
000170 da 19 1b bc 3f 94 9b bd 73 a2 0f bc 40 1e ef 3c
       -0.009466613 -0.07596635 -0.008766758 0.029189229
000180 00 02 f8 3c 80 41 16 3c 7f 43 a7 3d 30 b4 45 bd
       0.030274391 0.00917089 0.08167171 -0.048267543
